fcnn_model.pth (torch, 560612 bytes, 7 tensors)

conv1.weight f4 [16, 1, 5, 5]
000000 cc 2e 82 3e 1b 53 b8 3e da c9 fb 3e 80 39 ea 3e
       0.25426328 0.36000904 0.49177438 0.45746994
000010 da 8f 33 3e a8 46 3d 3d 5e 4d 9c 3e 80 3f c4 3e
       0.17535344 0.04620996 0.30527776 0.38329697
000020 cc 2b b6 3e 9f a0 f8 3d da 4f 7f 3e 2e 6a c2 3d
       0.3558029 0.12140011 0.24932805 0.094929084
000030 af e8 ec 3d 00 54 b2 3e eb da 48 3e 13 03 73 3e
       0.115678184 0.34829712 0.1961476 0.23731641
000040 99 6f 9d 3d 5b e6 9e bd 3d e1 9e 3d cc 22 b0 bd
       0.07687301 -0.077587806 0.077578045 -0.08600387
000050 b2 db 23 be 00 c3 f4 bd 70 9a fe bd df 65 22 3e
       -0.16001776 -0.11951256 -0.124318 0.15859173
000060 2f a5 e7 bd 1b 31 4a be 5a 84 1d bd ab ce 19 3e
       -0.11310803 -0.19745295 -0.0384563 0.15020244
000070 b3 1a 02 3e 16 73 20 3d dd 19 21 3d 5f 52 46 3e
       0.12705497 0.039172255 0.039331306 0.1936736
000080 f6 5a c3 bd 2e f6 34 3d b2 21 0f be a2 93 96 3d
       -0.09538834 0.044180088 -0.13977697 0.073523775
000090 94 03 ed 3d e3 22 ea 3c 3d 04 90 bd be 1f 6a 3d
       0.11572948 0.028581088 -0.070320584 0.057159178
0000a0 e2 99 71 3e af 2e f4 bd 69 4b 70 3d 08 3e 20 3e
       0.23593858 -0.11922967 0.058665667 0.15648663
0000b0 2c 17 ba 3c a7 2f 2c 3e c4 22 b0 bd 50 96 07 bd
       0.022716127 0.16815053 -0.08600381 -0.033102334
0000c0 36 bc bd 3c 39 73 15 bd 1f 35 45 be 5f c0 3d bd
       0.023161035 -0.036486838 -0.19258545 -0.046326037
0000d0 3b 9a 8c 3c 28 78 d1 bc b7 fd ef bd 97 49 bc 3d
       0.017163387 -0.02556999 -0.11718314 0.09193724
0000e0 3c ad cf 3b a0 fc 84 3e 2d 4d 46 bd 6e fa 7b 3e
       0.00633779 0.25973988 -0.048413444 0.2460725
0000f0 fa 8f 8e 3d 1f 2c ad 3e 78 ab 95 3e 6b de 58 3e
       0.06961055 0.33822724 0.29232383 0.21178596
000100 2b 1f 17 3e 0e 7e 36 3e 75 e4 f1 3d bf 21 7a 3e
       0.14757983 0.17821524 0.11811153 0.24426936
000110 6d fb 8d 3e 36 5d 98 bc 98 48 a3 bd e0 dd 06 3e
       0.27730885 -0.018599134 -0.079728305 0.13170576
000120 d6 9c c3 bd 0a 93 de 3d f4 84 5a 3e ff 3f d5 3c
       -0.095513985 0.10867889 0.2133978 0.026031492
000130 bc 9f b2 3e 44 d9 b5 3d 28 69 9a bd 78 89 9e bd
       0.34887493 0.08879331 -0.07539588 -0.07741064
000140 a5 a4 58 3e 31 30 f8 3e 59 ef a5 3e 99 92 2f 3d
       0.21156557 0.48474267 0.3240917 0.042864416
000150 19 2a 0c 3d f4 3f a3 3e e7 63 00 3f 0b 72 8b 3e
       0.034219835 0.3188473 0.5015244 0.27235445
000160 95 25 b5 3d 30 78 76 bd c5 c3 9c 3e 95 db d9 3e
       0.08845059 -0.060173213 0.3061811 0.4255034
000170 64 b2 3a 3e 1c 33 73 bd 58 fa e1 3d 08 1b 84 3e
       0.18232113 -0.059374914 0.110340774 0.25801873
000180 3d 9a 68 3e 84 82 8e 3d 2d 26 64 bd da 0f 02 bd
       0.22715087 0.06958488 -0.05570047 -0.0317534
000190 95 43 88 3d e0 6a 19 3e ab 2a 11 3e 70 ed 9d bd
       0.06653515 0.14982176 0.14176433 -0.07711303
0001a0 66 8a 2c 3d 69 bb da 3d 0e 2d ee 3d 9c 71 0c be
       0.042124175 0.10680277 0.11629687 -0.13715214
0001b0 3d b7 4b be e5 ec ed 3d f6 94 68 bd f5 de c4 bd
       -0.19894119 0.1161745 -0.056782685 -0.09612838
0001c0 ac 40 cf 3d 8a 74 ca bd 3f bc 53 bc 43 2a 47 3e
       0.10119757 -0.09885509 -0.012923299 0.19449715
0001d0 f7 cb 82 bd 08 81 30 be 74 19 3d be aa b8 43 3e
       -0.063865595 -0.17236722 -0.18466741 0.19113412
0001e0 c5 bd e2 3d c0 0f 35 be ad 62 aa 3a 01 ba 06 3d
       0.11071352 -0.1768179 0.0012999378 0.03289223
0001f0 33 4c ea 3c 83 4d 77 3d e6 b6 08 3d 49 6c 2c 3e
       0.028600788 0.060376655 0.03337755 0.16838183
000200 41 3f 39 be d3 54 34 bd a0 4f 4c be 36 f1 4b be
       -0.18090536 -0.044026207 -0.1995225 -0.19916233
000210 5e 7f ff 3c 46 0e 93 bd 47 93 db bd 22 a6 a5 bd
       0.031188663 -0.07180457 -0.1072145 -0.08088328
000220 1b 3f cc bd 3c 87 02 be 42 9a 29 3d b4 ff 4c 3c
       -0.09972974 -0.127469 0.041406877 0.012512136
000230 16 c2 c0 bc 9b 33 61 3d ba 57 73 bd cf 6f 2a 3d
       -0.023530047 0.054980855 -0.059409834 0.041610535
000240 d1 57 a3 3c 6f 48 82 3e d8 41 88 3e d0 d4 8e 3e
       0.019939335 0.25445887 0.26612735 0.27896738
000250 13 fe 4a 3e b9 46 4a 3e 84 7f ba 3d f0 52 11 be
       0.19823484 0.19753541 0.09106353 -0.14191794
000260 aa 12 28 be 91 8e 05 bd d4 73 bc bd 03 c0 29 3e
       -0.1641337 -0.032606665 -0.0920178 0.16577153
000270 19 48 47 3d 50 a9 2f bd 64 48 97 bc bc e3 60 3d
       0.048652742 -0.04288608 -0.018467136 0.054904684
000280 a6 a3 82 3e 67 e7 6b 3e 9a 11 bd bc 2d 24 b5 bd
       0.2551548 0.23037492 -0.023079682 -0.088447906
000290 0d 8e f8 bc 39 47 b7 3e c7 f3 9f 3e af 2f bd bb
       -0.030341173 0.35796526 0.31240675 -0.0057735066
0002a0 b2 42 4b 3e 3b 80 d9 bd 96 c8 12 3e 6b 1b 73 3e
       0.19849661 -0.10620161 0.1433433 0.23740928
0002b0 a9 1a 1d bd 8b 0c 3a be fc d9 02 3b 44 a5 96 3e
       -0.038355503 -0.18168847 0.0019966355 0.29422963
0002c0 2b 3c ca 3c 34 57 3a bc 9e 9d 49 3d 06 b1 e5 bd
       0.024686893 -0.01137333 0.04922258 -0.11215405
0002d0 b2 31 7a 3e c2 2e 09 3e 81 9d 54 3e c6 da 5a bd
       0.2443302 0.13396743 0.20763208 -0.053431295
0002e0 08 4f 4a 3e 86 3c a1 3e c9 a4 a4 3d 1d 27 3d 3c
       0.1975671 0.31491488 0.08039243 0.01154497
0002f0 d3 f4 0e 3e c7 48 03 be 51 86 71 3e 16 4f fb 3c
       0.1396058 -0.12820731 0.23586394 0.03067736
000300 24 e6 26 bd aa 05 90 3e 58 f3 74 3e cd 68 13 be
       -0.040746823 0.2812932 0.23920953 -0.14395447
000310 1f 8a 2b 3e d2 81 48 bd fc aa 98 3e ac 5e 3f 3e
       0.16751908 -0.04895193 0.2981795 0.18688458
000320 1c f8 94 bd d9 6f 10 bd 21 9e 22 3e ad bb 20 be
       -0.072738856 -0.035262916 0.15880634 -0.15696593
000330 17 da 15 bc 8d 71 d8 3c 76 91 71 bd ec c5 03 3d
       -0.009146235 0.026421333 -0.058976613 0.032171175
000340 f5 ca da 3d 32 ac b2 bd 66 40 94 3d bc ff 27 3e
       0.10683242 -0.0872425 0.072388455 0.16406149
000350 e5 ba 9f bc 51 8b 49 be 20 f2 5a 3d 94 02 d6 bd
       -0.019498298 -0.19682051 0.053453565 -0.104497105
000360 32 fa e2 b9 ba 73 da bd 1e ed 2e be 4d 0d 07 3d
       -0.0004329249 -0.10666604 -0.1708264 0.03297167
000370 43 14 d4 3c 98 ff e0 bd d3 e9 f6 bc 32 12 0b be
       0.025888568 -0.10986251 -0.030140793 -0.1358116
000380 d0 d0 37 be 8d 3a 60 3c 49 e5 f0 bd a6 2b 08 3e
       -0.1795075 0.013685835 -0.11762483 0.132979
000390 df 8b 26 3e c7 30 2b 3e 30 4f 91 3d 86 76 aa bc
       0.16264294 0.16717826 0.07095182 -0.02080847
0003a0 05 e1 5f bd 40 20 17 3e 5f 33 85 3e 2c 5e 2d be
       -0.054657955 0.14758396 0.26015756 -0.16930455
0003b0 15 21 15 3e 96 cc a9 bd 61 88 6c bc 96 2a 06 be
       0.14563401 -0.08290975 -0.014436812 -0.13102183
0003c0 13 9e 84 3e 23 65 91 3d f4 5e 6a 3e 6c 43 2f 3e
       0.2590185 0.070993684 0.22887784 0.17115563
0003d0 ca 7f 06 bd 0f 5e 86 3e 3d e6 1c 3d 9f 58 8e bb
       -0.032836713 0.26243636 0.03830551 -0.0043440606
0003e0 fd e4 5d 3e 39 f6 33 3e 7a 66 9a 3e 1f cb 82 3e
       0.21669383 0.17574395 0.30156308 0.25545594
0003f0 24 04 bd 3e 21 58 02 bd 18 86 b5 3d d3 2d 9d 3e
       0.36917222 -0.031822328 0.08863467 0.30699024

conv1.bias f4 [16]
000000 f9 d9 50 3e 3f dd 69 bd 1b 05 83 3d 5c cc 51 3e
       0.2039565 -0.057095762 0.06397458 0.20488113
000010 9b 29 ab 3d 09 b0 a5 3d 0f 43 5e 3e 4a f9 42 b8
       0.08357545 0.08090217 0.21705268 -4.6485373e-05
000020 62 4d 0f be b1 d2 e1 bd a4 f2 6a bd 2c 6d 95 3d
       -0.13994363 -0.11026514 -0.057360306 0.072962135
000030 54 3b fc 3d 69 d2 97 3e 73 ca 42 bc 73 e4 bc 3b
       0.123160034 0.29652718 -0.011889088 0.005764538

linear2.weight f4 [25, 3136]
000000 c8 a6 6f bc 6c 06 3c 3b e9 17 09 3c f1 b1 41 3c
       -0.014627166 0.0028690351 0.008367517 0.01182221
000010 21 65 3c bc a8 53 a8 bb 07 5a ab bb 89 cb c0 bb
       -0.01149872 -0.0051369257 -0.005229238 -0.0058836383
000020 13 ef 69 3c d8 ea ef bb af a4 77 bc 4e 3a 83 ba
       0.014278191 -0.0073216967 -0.015114947 -0.0010011883
000030 c6 09 2a bc 9a 24 85 3b f1 da 8a bc ae 30 82 3c
       -0.010378307 0.004063201 -0.016950103 0.015892353
000040 01 c9 a1 ba 41 c6 09 3c 03 a0 30 3c f3 8f 66 bc
       -0.0012343229 0.008409084 0.010780337 -0.014072406
000050 f1 e4 0e bc af a2 5a bc 94 87 2b bb 99 e7 7e 3c
       -0.008721576 -0.013344451 -0.002617334 0.015558147
000060 20 fe dc bb 25 b0 93 bc 79 96 f6 bb 05 34 35 bc
       -0.0067441612 -0.018028328 -0.007525262 -0.011059766
000070 4d 68 85 bc 1d da a0 3b d5 8a 84 bc a1 b4 46 bc
       -0.016285086 0.0049088136 -0.016179482 -0.012128026
000080 57 7b 4e 3b 72 82 89 bc 9b 38 68 bb 8f f7 a2 38
       0.0031506622 -0.016785834 -0.003543413 7.770873e-05
000090 cd dc 6a bb cb 73 0e bc 12 35 4d bc 2d ec 69 3b
       -0.0035837174 -0.008694599 -0.01252486 0.003569375
0000a0 eb 08 44 3c 92 48 1f 3b 52 f1 7d bc ad 7e cf 3b
       0.011965017 0.002430473 -0.01549943 0.0063322396
0000b0 d8 8b c7 bb 54 55 b0 3b 45 74 12 3c fe 59 36 3c
       -0.0060896687 0.0053812657 0.008938854 0.011129854
0000c0 5f 56 1a 3c 72 97 0b 3c fb 5c f4 3c c9 65 51 3b
       0.009420007 0.008519994 0.029829493 0.0031951538
0000d0 d5 f5 35 3b 85 d6 8f 3b e8 78 17 bc 1b 46 3e 3b
       0.0027764936 0.0043895864 -0.009245135 0.0029033485
0000e0 e7 02 54 3b 55 e0 5f ba 03 47 f9 3c 62 9c e5 3a
       0.0032350363 -0.0008540203 0.030429369 0.0017517919
0000f0 0e 3a a3 3c cd 6c d1 3b 97 65 10 3c 02 4e 99 3c
       0.019925144 0.006391144 0.008813283 0.018713955
000100 e8 5a 46 bb 05 b3 9a bc 1a ae 1f bc 35 8f ea 3c
       -0.0030266587 -0.018884191 -0.009746099 0.02863274
000110 15 dd 92 3c 55 8d 2a 3c c6 43 1b 3c e7 4b 7d 3c
       0.017927686 0.010409673 0.009476608 0.015459991
000120 a4 16 56 3c 30 86 93 bc 75 c8 82 bc a0 f3 62 bb
       0.013066921 -0.018008322 -0.015964726 -0.0034630075
000130 ec ef 86 bc 25 58 95 bb 5e a6 51 bc eb 4b f5 bb
       -0.016471826 -0.004557627 -0.012796013 -0.007485857
000140 13 d3 c3 3c 35 d4 f0 3b 3c e5 53 bc a6 ba 1d 3c
       0.023904359 0.007349516 -0.012933072 0.00962702
000150 31 ee 30 3c 44 48 94 bc c3 14 0c bc 9d ae ce 3a
       0.010798977 -0.018100865 -0.008549872 0.0015768592
000160 9a b8 39 bd c9 ba f2 bc fe 73 4c 3b b8 c2 f5 3c
       -0.045342065 -0.029630082 0.0031197066 0.030000076
000170 4c ac 62 3c 1c 8e 35 3c d5 75 a3 bb fa d4 22 bc
       0.013835024 0.011081245 -0.004988412 -0.009938473
000180 56 dd 00 bc 90 89 26 3c 25 48 2a 3c 43 2a 84 bc
       -0.007865271 0.010164633 0.010393177 -0.016133433
000190 b8 3b d3 3b 25 53 2e 3d d0 3c a9 3c 50 e9 65 3d
       0.006446328 0.04255976 0.02065888 0.056130707
0001a0 c8 06 3d 3d cf 66 de 3a 73 ba 75 3c 2d 9d 0b ba
       0.046149045 0.0016967895 0.014998066 -0.000532585
0001b0 29 24 8a bc 04 76 9d bc f0 62 a9 bb 49 8c 73 bb
       -0.016862946 -0.019221313 -0.005169265 -0.0037162474
0001c0 8b 8c 04 3c 04 86 82 bc da 35 cc 3c 67 84 6a 3d
       0.008090149 -0.015933044 0.024928022 0.057255175
0001d0 90 c5 83 3d 6e 09 2a 3d a2 2d 6f bc 82 5e a4 bc
       0.064341664 0.0415129 -0.014598282 -0.020064596
0001e0 a8 78 4e 3c 51 8a dd 3a 7d 44 b2 bc 37 37 ba bc
       0.012602009 0.0016902183 -0.021761173 -0.022731407
0001f0 d8 99 3e 3c c9 2e ea bb 20 e7 61 3c 2f c6 4e 3c
       0.011633359 -0.0071466905 0.013788015 0.012620493
000200 60 e3 c1 3c 0f 6c 35 3d b5 4b 4b bc 62 72 91 bc
       0.023667991 0.044292506 -0.012408187 -0.017754737
000210 98 95 7a bc fb 90 e2 3b 42 58 80 3c bd ab c9 bc
       -0.015294455 0.0069142557 0.015667085 -0.024618024
000220 57 c2 db bb f7 78 a1 3b f6 6c 18 3c 3d 9e 6b bc
       -0.0067065167 0.00492775 0.009303322 -0.014380989
000230 91 cb 53 3c 00 7a 3a 3c 5f c2 1a 3d 36 f0 a5 bb
       0.012926952 0.011381626 0.037783023 -0.0050640358
000240 a0 60 63 bd 3f 74 26 bd 50 3a 95 b9 ec ed a2 3c
       -0.05551207 -0.040638205 -0.0002846294 0.01988884
000250 cd 91 a6 bc 9d f5 b3 3a f3 06 d6 3c bc 07 3a 3d
       -0.020333195 0.0013729815 0.02612636 0.045417532
000260 2f f9 50 3c 7f f9 31 3c fb 22 d4 bb fe 88 7d bc
       0.0127547225 0.010862707 -0.0064738966 -0.015474556
000270 bc fa 2f 3c 11 ac 53 bc 33 82 b1 bc 33 01 64 3b
       0.010740932 -0.012919442 -0.02166853 0.0034790754
000280 09 7a 5c 3c 93 9a 84 bc 3b 8a 4e bd b2 99 ca 3b
       0.01345683 -0.016186988 -0.050424796 0.0061828727
000290 1d 28 42 3d b8 ba a8 3c 48 12 3b bb 51 37 5e bc
       0.047401536 0.020596847 -0.0028544832 -0.013562993
0002a0 7e df 92 3b 48 e6 18 bb 52 d2 34 3b c6 99 89 bc
       0.0044822088 -0.0023330618 0.002759118 -0.016796958
0002b0 1b 68 04 3c e2 b6 28 3d 82 2d 19 3d 74 62 fb bc
       0.008081461 0.041190036 0.037396915 -0.030686595
0002c0 21 70 03 bc a3 d8 6c 3c e9 e1 ac 3b 65 a8 52 bc
       -0.008022339 0.014455947 0.005275954 -0.012857531
0002d0 88 81 86 bc 9b 9d ac bb 84 54 e5 3b 96 2c 76 b8
       -0.016419187 -0.0052678115 0.0069986004 -5.8692494e-05
0002e0 a6 4d 3e 3c b9 78 54 bc 42 c2 b3 3c 3e 10 db 3b
       0.0116151925 -0.012968236 0.021943215 0.006685286
0002f0 e9 49 59 bb 1a 05 f1 3b 59 c8 91 bc 81 2e 20 bc
       -0.0033155626 0.0073553445 -0.017795729 -0.009776712
000300 de a1 dd 3b 0c 85 74 3c 35 4b 58 bc c6 b0 11 bb
       0.006763681 0.014924299 -0.0132015245 -0.002223061
000310 f2 e8 5d 3c 12 d9 78 3c ec ce 6c bc 09 2e 16 3c
       0.013544308 0.015188472 -0.014453631 0.009166249
000320 50 c3 0e 3c 94 e0 10 bc f1 11 80 ba 1b fe 6a 3c
       0.008713558 -0.008842606 -0.0009770972 0.01434281
000330 93 a1 6f 3c 49 ba 83 bc 34 07 96 bc 6d ee 52 bc
       0.014625925 -0.016080039 -0.018313982 -0.012874228
000340 c7 85 e7 39 be 4d e7 ba 80 e6 90 bb 18 2a 47 3c
       0.00044159425 -0.001764707 -0.004422009 0.012156032
000350 48 50 53 3c 4e 11 53 3c 41 65 61 3a 74 0c 86 bc
       0.0128975585 0.012882544 0.0008598157 -0.01636336
000360 f1 c5 ab bb 37 dd 12 bc 18 e1 ef ba 09 32 ea ba
       -0.0052421023 -0.008963875 -0.0018301336 -0.0017867695
000370 96 c4 3e bb 6c f1 65 bc 2f 50 4f 3b 13 ab 18 3c
       -0.0029108874 -0.01403461 0.0031633487 0.009318131
000380 93 ca 89 3c bc 3d 58 bc 1e 45 01 bc a3 d9 ee 3b
       0.016820228 -0.013198312 -0.007890014 0.007289128
000390 d2 f9 60 3c 62 d6 31 3c a1 3a 0c ba 88 2c 14 3c
       0.013731437 0.0108543355 -0.00053493126 0.00904382
0003a0 c1 4b 76 bb 34 eb 30 3c 2d ab 39 bc 62 bf fe 3a
       -0.0037581774 0.010798264 -0.011332315 0.0019435699
0003b0 d1 0f ff 3b 2a 1d 0b 3c 07 99 25 3c dd e7 eb ba
       0.007783868 0.00849084 0.010107285 -0.0017998178
0003c0 a9 65 7a bc db 88 c6 b9 7f 71 70 bc e6 95 42 bc
       -0.015283027 -0.00037867468 -0.014675497 -0.011876559
0003d0 d3 f8 ff bb af 42 65 3c 6d c5 92 3c a1 57 91 bc
       -0.0078116446 0.013992949 0.017916406 -0.01774198
0003e0 1c 3e bf bb 96 54 46 3c 52 aa 01 3c d1 98 35 bc
       -0.0058362614 0.012105128 0.007914143 -0.011083798
0003f0 89 a8 17 bc aa 6a 33 3c 48 c9 1b 3c c7 c4 4d bc
       -0.0092564905 0.010950724 0.009508438 -0.012559122

linear2.bias f4 [25]
000000 62 07 31 3c b3 66 bc 3c d2 6d f5 3a ce c1 e4 3b
       0.010804983 0.02299819 0.0018724746 0.006981111
000010 d1 21 fb 3b 69 82 b7 3b 70 2e 11 3c 00 9c be ba
       0.0076639433 0.005600263 0.008861169 -0.0014542341
000020 2c d3 3f 3c ef 7d b2 3c 70 55 1e 3c 93 b6 f0 bb
       0.011708062 0.021788565 0.009663925 -0.0073459833
000030 ee cd 3d 3c 3d a6 b8 3c 97 45 5e bc 10 66 6c 3b
       0.011584742 0.022540206 -0.013566396 0.0036071576
000040 66 5e 7b 3b 2e f3 c5 3a 72 55 b4 bc c9 1a 07 3b
       0.0038355826 0.001510238 -0.0220134 0.002061533
000050 76 a8 9d bc 48 5e 81 bb 30 02 95 3c f5 e4 a0 3c
       -0.019245367 -0.003948007 0.01818952 0.019640425
000060 2a 58 c9 3a
       0.0015361358

linear5.weight f4 [2304, 25]
000000 04 7f 83 3d 71 3b 43 3e 36 de 99 ba 4e b2 2d be
       0.06420711 0.19065644 -0.0011739198 -0.16962549
000010 0d 47 0d be 49 ca 44 be 12 70 48 be c9 89 85 3d
       -0.13796635 -0.1921779 -0.19574001 0.06520421
000020 bf 28 f3 3d e2 d7 20 be 76 37 54 3d 07 01 0a 3e
       0.11873006 -0.15707353 0.051810704 0.13476954
000030 0b 0e 25 be fd 51 0f be ff f3 16 3e d9 56 28 3e
       -0.16118638 -0.1399612 0.14741515 0.1643938
000040 64 42 a9 3d 6d e9 19 be d1 c9 05 3e d3 a0 50 be
       0.08264616 -0.15030451 0.13065268 -0.2037385
000050 bb 4a 24 3d 2c 09 42 be ef a2 ea 3d 49 e3 2f 3e
       0.04011033 -0.18948811 0.11456858 0.17176546
000060 69 eb 2f 3e 31 a9 18 3e 3e cf e1 3d 87 34 39 be
       0.17179646 0.14908291 0.110258564 -0.18086444
000070 6b 01 2f 3e 08 89 25 bd 0a 33 cd bd ac fa 68 3d
       0.17090385 -0.040413886 -0.100195006 0.056879684
000080 4d 99 01 be f8 64 2f be 80 22 b4 3c 72 75 49 be
       -0.12656136 -0.1712836 0.021989107 -0.19673708
000090 d6 83 b4 3d 57 87 c0 bd a0 56 15 bd a1 9f 0d 3e
       0.08814208 -0.09400814 -0.036459565 0.13830425
0000a0 c8 a0 7d bd c0 4b 01 be 3a 81 0a be 69 05 3a 3e
       -0.06192091 -0.12626553 -0.13525859 0.18166126
0000b0 00 97 85 ba c2 bc 23 be 90 10 e3 bd 68 d8 d9 bc
       -0.0010192096 -0.15989974 -0.110871434 -0.026592448
0000c0 2a 40 fb bd 94 46 52 bd d4 b1 22 3e 80 11 a4 bd
       -0.12268098 -0.05133684 0.15888149 -0.0801115
0000d0 dd 3e 25 be 94 c3 44 3c 33 4e 2d 3e e2 6a 26 3e
       -0.16137262 0.01200952 0.16924362 0.1625171
0000e0 1f ec c5 bd f4 8a 95 3c c6 64 a7 3d ae a1 36 3e
       -0.09664177 0.018254735 0.08173518 0.17835113
0000f0 a0 bb b7 3d c5 a2 fe bd 90 07 3a 3e ad 7c 8c 3d
       0.089713335 -0.124333896 0.18166947 0.068597175
000100 88 46 1e 3e 8a 04 e6 3d 4c 92 88 3b 95 dd 1a 3e
       0.15456593 0.112313345 0.0041678306 0.1512359
000110 4b 59 b5 3d 2f 8b ee 3d 19 0a 37 be 60 bc 1f 3d
       0.08854922 0.11647641 -0.17874946 0.038998008
000120 5d 0c 94 bd 6f df bf bd 94 ae b4 3c d1 a1 13 3d
       -0.072289206 -0.093687885 0.022055902 0.036042992
000130 f7 ad 45 be f6 26 14 3d bc 65 a1 3d d7 f7 9d bc
       -0.19304644 0.03616997 0.078807324 -0.019283218
000140 61 bf 32 3e 4c a8 44 be e3 8f 60 3d c2 95 d9 bd
       0.17455818 -0.19204825 0.05482472 -0.10624267
000150 96 32 9f bd 29 85 28 3e 0b 04 74 bd df 24 a8 3d
       -0.077733204 0.16457047 -0.05957417 0.082101576
000160 6b da e1 3d 64 53 a8 bc ac 6c 83 bd b9 21 21 3e
       0.11027988 -0.020547576 -0.06417212 0.1573552
000170 1e 16 24 bd f5 13 80 3d d8 d2 03 3e 9a a5 f6 bd
       -0.040060155 0.062538065 0.128734 -0.12043305
000180 d1 a2 23 3e 46 b4 49 be 98 e4 ff ba 7d c6 2f bd
       0.15980078 -0.19697675 -0.0019523082 -0.042913903
000190 9c 1d 66 3d bf 8c 8e 3d 3f 42 48 bd 1a 38 ae bd
       0.05618058 0.06960439 -0.048891302 -0.08506794
0001a0 9e 2d 10 3e 58 7c 26 be d1 80 14 be dc 3d 23 3e
       0.14079902 -0.16258371 -0.14502265 0.15941566
0001b0 f5 df 40 bd 3b 1f f0 3d d3 a7 13 3e 19 25 c7 3d
       -0.047088582 0.11724707 0.14419489 0.09723873
0001c0 e4 8a de 3d 4f 19 a3 3c 33 b6 99 3b c0 2d 3e 3e
       0.10866335 0.019909529 0.0046909093 0.1857214
0001d0 e2 26 a1 3b a8 36 5a bd c0 55 82 3c 8d ed 09 be
       0.0049179653 -0.05327478 0.01591003 -0.13469525
0001e0 01 a9 1f 3d b9 ff d2 3d b1 d0 21 3e 68 c3 ba 3b
       0.038979534 0.103026815 0.15802266 0.005699564
0001f0 3a 46 0a be 38 65 99 bd b0 01 82 bb 89 ab 04 be
       -0.13503352 -0.07490009 -0.0039674863 -0.1295606
000200 99 b0 09 3e 65 33 cd 3d ab 83 b9 3d 84 87 0f be
       0.13446273 0.10019568 0.09058317 -0.14016539
000210 cb 31 1e 3e fa 52 f6 bc ae 2d 51 3d 46 f3 84 bd
       0.15448682 -0.030068863 0.051068954 -0.06491713
000220 38 54 10 be f4 2a bb 3d 1c b3 2b 3d 4a 5e 87 3d
       -0.14094627 0.09139052 0.04191886 0.06609781
000230 d7 a8 07 be 9a 5c aa 3c 7b 9a f0 bd 99 94 71 bc
       -0.13248001 0.020796109 -0.11748215 -0.014744901
000240 50 d2 56 3d 4b 66 ad 3d 1d 42 1a be 12 91 30 3e
       0.052446663 0.084667765 -0.15064283 0.1724284
000250 ee e0 19 bd 61 ae 67 bd be b8 19 be 81 05 da 3d
       -0.037568025 -0.056562785 -0.1501188 0.10645581
000260 a1 44 22 bd f4 4d d3 bd aa 41 0b be a0 47 14 bd
       -0.03961623 -0.10317603 -0.13599268 -0.03620112
000270 c8 1b 1f 3d 4b 69 da 3d 04 1a e1 3d 03 d8 e8 3d
       0.038844854 0.10664614 0.1099129 0.11369326
000280 86 dd ec bd a8 82 b9 bd d1 2e 2c 3d bd 96 1c bd
       -0.1156569 -0.09058124 0.042036835 -0.038229693
000290 9d 3a 2f bd 9e e0 3d 3e 98 91 9f 3c 40 1e 18 be
       -0.042780507 0.18542716 0.019478604 -0.1485529
0002a0 33 a1 0c be 13 f9 44 be 70 83 d5 bd 8b d3 4c 3c
       -0.13733368 -0.1923564 -0.1042546 0.012501608
0002b0 39 14 48 3c 82 5f 08 3e 7d 81 36 3e ad b2 53 bd
       0.012211853 0.13317683 0.17822833 -0.05168407
0002c0 9e 11 ad bd 87 f4 04 bc 73 29 ea 3d d7 e3 5a 3d
       -0.08450626 -0.0081149405 0.11433687 0.05343994
0002d0 a0 d9 9b bc 6f 28 20 3c 71 4e 1e 3d 3b 1f ce bd
       -0.01902467 0.009775265 0.038649026 -0.100645505
0002e0 00 df b3 bd 44 1a b4 3d a6 2b 85 3d e2 c0 ac bd
       -0.08782768 0.08794072 0.06502466 -0.08435227
0002f0 6b 76 4e 3d 4a da bc 3d 54 9a 2f 3e ba 6d 2f 3e
       0.0504059 0.09221323 0.17148715 0.17131701
000300 93 ac f5 3d e5 eb c8 3d 74 e1 2d be 1d d0 e2 3c
       0.119958065 0.09810618 -0.16980535 0.027687127
000310 03 40 d6 3d ff 9e ce 3d b7 ed 0c bd 88 d3 0e 3e
       0.10461428 0.1008892 -0.03440639 0.1394788
000320 76 63 0c 3e b2 fc e4 bd e8 a2 20 bd 47 ea ca bd
       0.13709816 -0.1118101 -0.03921786 -0.09907966
000330 da a7 4c 3e 4c 31 9b bd 9b 5d 25 be d8 8e de bd
       0.19985905 -0.07577762 -0.16148989 -0.10867089
000340 5b d2 c5 3d 02 29 31 be c6 39 34 be 55 d0 23 be
       0.09659263 -0.173008 -0.17600164 -0.15997441
000350 5e dc 3e 3e 9c a7 4b 3e 37 a8 9f 3d 97 89 90 3d
       0.18638751 0.19888157 0.07795756 0.07057493
000360 7c 33 42 3e dd 43 bb 3d fb 15 05 3e f7 5e c1 bc
       0.18964952 0.09143803 0.12996666 -0.023604853
000370 1e f3 27 3e 8c 8b a1 3d 8d 89 28 bb f2 f4 02 be
       0.16401336 0.078879446 -0.0025716752 -0.12788752
000380 04 8c 49 be 8c a6 d8 bd f6 ea 4a bd b8 f7 de 3d
       -0.19682318 -0.10578641 -0.049540482 0.10887092
000390 4a 09 8d 3b bf 44 d9 3d de 6f e4 3d 6b 02 09 bd
       0.004304086 0.106088154 0.111541495 -0.03344957
0003a0 6c da bc bd c9 de 2c 3e 82 3b 6e bd 96 32 44 3e
       -0.09221348 0.16881861 -0.05816222 0.19159922
0003b0 74 42 fd bd af 7b 07 bd 5b 6f d8 bd 4c 7c f7 3d
       -0.123661906 -0.03307694 -0.10568114 0.120842546
0003c0 80 fe 30 3e 2d 97 ef 3d 2a 1a 48 3e 39 b2 a7 3d
       0.17284584 0.11698756 0.19541231 0.0818829
0003d0 2d b9 ed 3c 9d 27 5a 3d 00 3a 0f bd 45 1b f2 bc
       0.029018963 0.053260434 -0.034967422 -0.029554019
0003e0 cf 9e 90 3d 7c fb 2c be 41 44 2f 3e c8 8c a1 bd
       0.0706154 -0.16892809 0.1711588 -0.0788818
0003f0 74 55 3e 3e e2 cc f4 3d 0c b9 ae 3d 97 1e 6b 3d
       0.18587285 0.11953141 0.08531389 0.05740222

linear5.bias f4 [2304]
000000 15 36 ef 3d 37 ec da bd 53 88 4b be 4b ef 1a be
       0.11680237 -0.10689586 -0.19876222 -0.15130346
000010 74 d0 51 be cd b3 45 3e 0b 3a 4b bc f3 d5 ec 3c
       -0.20489675 0.1930687 -0.012403975 0.028910613
000020 68 02 83 bd 10 e0 10 be ee 2b 33 3d 60 d0 8d bc
       -0.06396943 -0.14147973 0.043743066 -0.017311275
000030 d7 95 05 be ce a5 ea 3d f3 38 5d bd 62 82 e5 3d
       -0.1304544 0.11457406 -0.05400939 0.11206509
000040 3f 26 f6 bd 94 0a 47 be 28 26 85 3c b5 62 1b be
       -0.120190136 -0.19437629 0.016253546 -0.15174372
000050 b8 22 90 bd 4b 99 4c 3d 36 60 8c 3c 3f 5c ae bc
       -0.07037872 0.04995088 0.01713572 -0.02128422
000060 54 69 d0 bd 26 88 20 be e2 46 00 3c 2c 95 02 be
       -0.1017634 -0.15676937 0.0078294 -0.12752217
000070 63 57 ab 3d 28 25 3b bd cd d3 0f 3d c0 d2 38 bd
       0.08366277 -0.04568973 0.0351141 -0.04512286
000080 32 a0 00 be bb cb 5d 3d f7 5c 3b 3e 18 ae 2c be
       -0.1256111 0.05414937 0.18297182 -0.16863286
000090 a3 cc 3c 3e 72 56 85 3d 4a e5 bd 3d 17 fe 8f 3c
       0.18437438 0.06510629 0.09272249 0.017577214
0000a0 b2 c8 5a 3d 1a 4f a1 bd c4 af 4d 3c a1 57 f0 bc
       0.053414054 -0.078764156 0.012554113 -0.02933866
0000b0 49 4b fc 3d 81 e7 15 be 80 b3 d4 bd 59 a1 c4 bd
       0.12319047 -0.14639093 -0.103857994 -0.09601087
0000c0 ce 94 3e 3e be be 7e bc 04 09 39 be 99 97 97 3d
       0.18611452 -0.015548406 -0.18069845 0.07401962
0000d0 85 19 14 be e0 a5 f9 bd 22 35 a9 bd a3 d8 75 bd
       -0.1446286 -0.12189841 -0.082620874 -0.060021054
0000e0 75 9d 20 be 8f f3 c8 3c 20 4b e5 3d ae 1d 0a be
       -0.15685065 0.0245302 0.111959696 -0.13487884
0000f0 c0 bf aa 3a d3 4c 57 3d 57 1b e0 bd 68 b2 1f 3e
       0.0013027117 0.0525635 -0.10942715 0.155954
000100 59 04 c9 3c ee d5 04 3e e9 b6 d5 bc a7 aa af 3d
       0.024538206 0.12972233 -0.026088195 0.08577471
000110 05 e1 1e 3e ca 8b 00 3e 7e 77 e0 bd 28 0b 3f 3e
       0.15515526 0.12553325 -0.10960291 0.186566
000120 60 a1 63 3c ef df 4e bd 93 9b 1a be 4b 84 1d bd
       0.013893455 -0.05050653 -0.1509841 -0.038456243
000130 d0 f5 3a be dc 12 af 3c 36 80 22 be 41 8d 2e 3d
       -0.18257833 0.021371298 -0.15869221 0.04261518
000140 cd 5b aa bc b3 82 b0 bd 15 6c 92 bd 6e b0 1b be
       -0.020795727 -0.08618679 -0.07149521 -0.15204021
000150 2f 4e 94 3d c5 b9 f9 bd 16 00 61 3c fe d0 08 bc
       0.07241475 -0.12193636 0.013732931 -0.008350609
000160 8a 14 6f bc 9c 38 21 be 51 70 e5 bd 82 81 ab 3d
       -0.014592299 -0.15744251 -0.11203063 0.08374311
000170 c8 49 1e be 66 ba 04 be f4 ca 2b bd b4 b3 11 be
       -0.15457833 -0.1296173 -0.041941598 -0.14228708
000180 d3 bd 2f be 1f ac 4d be 00 4f ed 3a b0 bf 1c 3d
       -0.17162256 -0.2008519 0.0018105209 0.038268745
000190 75 1b 43 3e 03 d8 24 be 53 d8 82 bd de 91 eb 3d
       0.19053443 -0.16098027 -0.06388917 0.11502431
0001a0 51 2d ab bd 75 46 1c 3e e5 25 1a 3d 8a 37 06 be
       -0.08358253 0.15261252 0.037633795 -0.13107124
0001b0 2a 71 65 bd 26 3f 92 3d 85 f2 56 bc 55 e7 47 3d
       -0.056016125 0.07140951 -0.013119345 0.0488046
0001c0 ff cd 1a bc f5 84 44 be d0 b7 f9 bd e3 81 3b 3d
       -0.009448527 -0.19191344 -0.121932626 0.045778167
0001d0 48 a8 45 be 36 a2 d7 3b 50 ef 30 be 51 c0 0c 3e
       -0.19302475 0.0065806163 -0.1727879 0.13745238
0001e0 fb 89 90 3c 58 7f 84 3c 48 1a 14 3d 0a 0a 6c bb
       0.01764392 0.016174003 0.036157876 -0.0036016726
0001f0 ca 3e 24 3d 5d f3 b7 bd 92 cf 21 3e a5 5e 5a 3b
       0.040098943 -0.08981965 0.15801838 0.0033320573
000200 0e 73 15 be fe 49 16 be 0d c9 11 3e 02 41 e2 bd
       -0.14594671 -0.14676663 0.14236851 -0.110475555
000210 cc 84 11 bd 3f 5d 0a 3e da 0a 17 3e 73 7c de 3d
       -0.035527036 0.13512133 0.14750233 0.108635806
000220 be b2 31 be b1 e4 f9 bd 04 1d f1 3d 01 94 ee 3d
       -0.17353341 -0.122018225 0.117731124 0.11649323
000230 d0 7f fc 3d f0 4b 84 3d 17 86 62 bd 21 79 ac bd
       0.12329066 0.064597964 -0.05530366 -0.08421541
000240 64 fb 8c 3d 9b cd c9 3d 7b 5d c9 bc 9e 22 4d be
       0.068838865 0.09853669 -0.024580708 -0.20032737
000250 71 bc 2f 3e 67 86 16 be d4 f9 27 3e 6c aa 32 be
       0.17161728 -0.14699708 0.16403896 -0.17447823
000260 97 11 34 bd ca 91 aa 3c fb 51 46 3e e2 b2 7a bd
       -0.043962087 0.02082147 0.1936721 -0.061205752
000270 ea aa 02 be d5 cf 35 3e 3e cd 08 be 10 36 3c bd
       -0.12760511 0.17755063 -0.13359544 -0.045949996
000280 31 bb 3c 3e 77 a9 e3 bd 40 dc 1f be be 1e 85 3d
       0.18430783 -0.11116307 -0.15611362 0.06500004
000290 4c 74 ff bc 9d f9 45 be 4d bb 39 3e d5 1e 99 3d
       -0.031183384 -0.19333501 0.18137856 0.07476584
0002a0 6f f4 ab 3d 21 9d 3e 3e 79 29 3b 3e c4 ba fa bd
       0.083962314 0.18614627 0.1827754 -0.12242654
0002b0 89 e4 67 bd 6e 17 b7 3d 0c 97 9d 3d 3e 6e 01 3e
       -0.056614432 0.08940016 0.076948255 0.1263971
0002c0 38 8b 44 3d 45 bb 49 bd 03 f3 77 bd 2a 25 e6 3d
       0.04798433 -0.04925086 -0.06053449 0.11237557
0002d0 f9 fe fe bd 50 1a f5 bc f1 6c de bb 21 0f ea bd
       -0.12450976 -0.029919773 -0.006787889 -0.11428667
0002e0 c8 74 18 3e 16 88 72 3d b2 d5 42 3e 5a 01 01 be
       0.14888299 0.059211813 0.19026831 -0.12598172
0002f0 40 a8 9b bd 59 cc 3d be 9a 80 18 3d 78 56 8c 3d
       -0.076004505 -0.18534984 0.03723202 0.0685243
000300 69 00 64 bd 94 30 ff 3c 19 ad de bd 4b df 3b be
       -0.055664454 0.031151094 -0.108728595 -0.18346898
000310 eb 73 15 be 50 b9 98 3d d0 eb 01 be b5 f6 f6 bd
       -0.14595 0.074572206 -0.12687612 -0.120587744
000320 99 80 0e be 10 5d 1c 3e d1 fe 3f 3d 40 ab 20 3c
       -0.13916244 0.15269876 0.04687387 0.009806454
000330 ed 8d 05 bc 1b 41 17 3e a1 59 24 be 38 8b 77 bc
       -0.0081515135 0.1477093 -0.16049816 -0.015108876
000340 4b f5 48 bd d1 d4 4b bd 68 6b f8 3d ea 7b c5 bd
       -0.049062055 -0.049763504 0.12129861 -0.09642775
000350 ed 38 2a be f9 f4 2e be dc 7e 07 bd 96 44 89 3c
       -0.16623278 -0.17085637 -0.033079967 0.016756337
000360 c4 b8 18 3e 98 a0 23 be ad c3 2f 3e a0 93 4a 3e
       0.14914232 -0.1597923 0.17164488 0.19782877
000370 79 9e 3b be c3 b6 09 3e d0 70 47 bd 7b 9f b4 bd
       -0.18322171 0.13448624 -0.04869157 -0.08819481
000380 5d 71 89 3c 48 0c 24 3e 3f 38 2f bb 62 90 bc bc
       0.016777689 0.1602031 -0.0026736406 -0.023018066
000390 a2 bc 36 be ad 22 3e 3e e5 ca ea bd 63 bd 43 be
       -0.17845395 0.18567915 -0.1146448 -0.19115214
0003a0 23 f6 07 3e 60 22 0d 3c 8f cb d5 bd fa a9 de bc
       0.13277487 0.008614153 -0.10439216 -0.02718066
0003b0 b7 53 e8 3d ef c7 11 3d 6a 0b 41 be 02 66 3c 3e
       0.11344092 0.035591062 -0.1885201 0.18398288
0003c0 07 9f a4 bc 39 b7 06 3d 6f bb 81 bd 2f 0e 0a 3e
       -0.020095361 0.03288958 -0.06334578 0.13481973
0003d0 95 fa 8f 3d 2f e2 11 be 24 49 18 3e 8d d6 43 be
       0.070302166 -0.14246438 0.14871651 -0.19124813
0003e0 85 fe 0d bd 59 17 ad 3c 5c 3d ce bd 00 63 c4 3d
       -0.034666557 0.021129297 -0.10070297 0.09589195
0003f0 66 fd 30 be 64 0b 3c 3e 8f 27 3d 3e 35 20 1d 3e
       -0.17284164 0.1836372 0.18472122 0.15344317

deconv.weight f4 [16, 1, 6, 6]
000000 68 2f c3 3d 5f 7c 2a 3e b6 2f ad 3d 7d 84 08 3c
       0.095305264 0.16649006 0.08456366 0.008332369
000010 68 0d 04 bd 4b 79 aa bd 5d 89 10 3e 6a 40 36 3e
       -0.032239348 -0.08323916 0.141149 0.1779801
000020 a5 00 da 3d 73 dd 25 3a 53 e2 e8 bd 78 50 18 be
       0.10644654 0.0006327249 -0.11371293 -0.14874446
000030 72 33 12 3e 9c a8 4b 3e df 03 f0 3d db 69 c4 bc
       0.14277437 0.19888538 0.11719488 -0.023976257
000040 81 f6 c6 bd ba be d9 bd e8 45 eb 3d 9e e4 08 3e
       -0.09714986 -0.10632081 0.11487943 0.1336846
000050 3b db 43 3d d9 6f 89 bd d8 0f b6 bd 6d 70 b1 bd
       0.047816496 -0.06710786 -0.08889741 -0.08664022
000060 4b 69 9f 3d 58 43 a5 3d f5 5e 83 3d 71 0c d3 3b
       0.07783755 0.080694854 0.06414596 0.006440692
000070 2b b2 08 bd 92 7d 17 bd e0 d1 8d 3d 24 6b 9a 3d
       -0.03337304 -0.036984988 0.06924796 0.07539967
000080 04 c1 68 3d 90 e5 01 3c 0e de 60 bd 04 86 d6 bc
       0.0568247 0.007928267 -0.054899268 -0.02618695
000090 90 ef d8 bc f5 ab 73 bc 4a f9 e5 3c fb 72 33 3d
       -0.02648142 -0.014872541 0.028072972 0.043810826
0000a0 ef 7e a3 3d ad 0a 4a 3d 5e fd 13 3d 83 e1 91 3d
       0.07983195 0.049326587 0.0361303 0.07123091
0000b0 a5 fb 01 3e 19 6a 14 3e b5 27 2f 3e f6 7a 03 3e
       0.12693651 0.14493598 0.17104991 0.12839875
0000c0 40 bb 8c 3d f4 67 e3 3d eb 37 11 3e 86 68 4c 3e
       0.068716526 0.11103812 0.14181487 0.19961748
0000d0 44 26 5e 3e c0 00 4e 3e be c3 90 3c 50 75 70 3c
       0.21694285 0.20117474 0.017671462 0.014676407
0000e0 d3 d5 56 3d 47 d5 d0 3d d8 e2 00 3e d5 d6 f1 3d
       0.052450012 0.101969294 0.12586534 0.11808554
0000f0 c9 51 95 bc bb 3f af bd 0e 33 79 bd f4 7b 41 bd
       -0.018227475 -0.085570775 -0.060839705 -0.04723735
000100 fa e0 f2 3a 6c 55 62 bb 98 10 6d bd 0f 60 f0 bd
       0.0018530183 -0.0034535779 -0.057877153 -0.11737072
000110 42 41 11 be cd 49 1b be c8 0a e2 bd b0 30 e2 bd
       -0.1418505 -0.15164872 -0.110372126 -0.11044443
000120 bd cc 85 bd 69 3b 3e 3c 73 c2 ad 3d 4a d1 8a 3d
       -0.06533191 0.011610844 0.08484354 0.067782
000130 b4 71 ac 3d 96 0e 44 3d 4c f7 be 3c 98 71 24 3e
       0.08420125 0.047865473 0.02331128 0.16058958
000140 90 fa 77 3e 72 59 7e 3e 77 d9 5f 3e a5 7d 0f 3e
       0.24216676 0.24838808 0.218603 0.14012773
000150 ca cd 0b 3e 11 a1 99 3e e5 dc bd 3e 7d a4 bc 3e
       0.13652721 0.30005696 0.37082592 0.36844245
000160 f1 28 83 3e cd 2e ce 3d 04 80 71 3e 17 34 c0 3e
       0.25617173 0.1006752 0.2358399 0.3753974
000170 e4 62 c2 3e cf 6d b5 3e 59 9b 34 3e 2b 91 50 3d
       0.37966073 0.3543534 0.17637385 0.050919693
000180 c8 0c 74 3e 10 09 a2 3e 05 ff 98 3e 7d 6d 5b 3e
       0.23833 0.3164754 0.29882064 0.21428485
000190 69 b7 bd 3d 42 4d aa 3c 06 43 dd 3d 2d e3 12 3e
       0.09263498 0.020788793 0.10803799 0.14344473
0001a0 fd bb ad 3d 22 53 03 3d e2 1c a6 bb 96 29 fc bc
       0.084831215 0.032061704 -0.005069361 -0.030781548
0001b0 11 6d 99 bc dd 95 15 3c b8 f7 32 3d bf bc a2 3d
       -0.018728765 0.0091299685 0.043693274 0.07946157
0001c0 38 0d 8e 3d d2 fb 90 3c dc 15 0c bd d6 54 67 3c
       0.06936115 0.017698202 -0.034200534 0.014119348
0001d0 4b c3 00 3e f7 63 26 3e 7a 90 22 3e a4 65 d2 3d
       0.12574498 0.16249071 0.15875426 0.10273293
0001e0 1c b0 30 3c 1a 76 bf 3d 8e 6c 25 3e 01 c7 59 3e
       0.010784175 0.09348698 0.16154692 0.2126732
0001f0 fa ac 6f 3e 31 cf 32 3e 88 e4 2c 3d e3 bd 33 3e
       0.23405829 0.1746185 0.042210132 0.17552905
000200 ad 85 75 3e 68 81 93 3e bb f0 74 3e a9 5b 0a 3e
       0.23976775 0.28809667 0.23919956 0.13511528
000210 ef d8 64 3d 60 11 46 3e 0e 51 77 3e e2 d1 8a 3e
       0.055870946 0.19342566 0.24152014 0.27113253
000220 3e 25 54 3e 41 a1 a7 3d 37 5c 94 3c 67 57 17 3e
       0.20717332 0.081850536 0.018110378 0.14779435
000230 ac 24 3e 3e fc 05 4b 3e c4 ee d5 3d f8 63 94 bc
       0.18568677 0.19826502 0.104459316 -0.018114075
000240 c2 14 17 3c 0a 83 38 3d 14 b6 6e bd dd 7d 19 be
       0.009221258 0.045046844 -0.058279112 -0.1498942
000250 1f 3d 0f be 5a 2f d2 bd 2c 27 aa 3c 5f 0a b2 bc
       -0.1398816 -0.10262938 0.020770632 -0.021733461
000260 1c 39 0c be 87 f8 4a be f6 5b 53 be 06 7f 11 be
       -0.1369366 -0.19821368 -0.20640549 -0.14208612
000270 aa da ea 3c 9e b3 b4 bc d4 e3 40 be e5 88 6c be
       0.02866872 -0.022058304 -0.1883691 -0.23099096
000280 7f fc 8a be de 85 5b be c2 24 d5 3c bf 5a d9 bc
       -0.27145764 -0.21437785 0.026018504 -0.026532529
000290 66 b9 ef bd 4c 7a 38 be e1 e9 52 be 3c 7e 23 be
       -0.11705284 -0.18015403 -0.2059703 -0.15966123
0002a0 5b eb 47 3d 09 3d a5 3b bb 99 da bd 5f c6 5d be
       0.048808437 0.0050426763 -0.10673853 -0.21657704
0002b0 6f f2 71 be 81 66 3a be c2 0f 81 3d ee 38 1f 3d
       -0.23627637 -0.18203165 0.06301834 0.03887265
0002c0 80 c1 e5 bb 8d 58 e1 bd 40 b9 23 be c5 b5 eb bd
       -0.0070115924 -0.11003218 -0.15988636 -0.11509279
0002d0 e9 b8 3c 3d df 34 8a 3d a1 34 b3 3d 00 29 a8 3d
       0.04607478 0.067483656 0.087502725 0.08210945
0002e0 ab 7c e8 3d 8b 63 29 3d e7 a0 41 3d 57 5c 81 3d
       0.113519035 0.041354697 0.04727259 0.063164406
0002f0 2c bd aa 3d bd 4c c4 3d 50 8b d1 3d 2d 58 84 bc
       0.08336863 0.09584949 0.1023165 -0.016155327
000300 8c 79 75 3d ec d6 24 3d a8 37 7b 3d 1b 23 7d 3d
       0.05993037 0.040244028 0.061332375 0.061801057
000310 9a a1 59 3d 07 e8 28 bd 1f bc 7c 3d 16 9b 3f bb
       0.05313263 -0.041236904 0.061702844 -0.0029236726
000320 04 90 59 bc 46 a9 2c bd e2 43 a1 bd cb e3 56 bd
       -0.013278965 -0.04215362 -0.07874276 -0.052463334
000330 bf f5 54 3d b9 d6 5f bd 97 f2 c0 bd d7 fa 18 be
       0.051992174 -0.054648135 -0.0942127 -0.14939438
000340 49 e6 56 be 81 3e 0a be bb 97 69 3c a7 0d 7e bd
       -0.20986284 -0.13500406 0.014257367 -0.06202474
000350 06 8f 97 bd 3a 04 db bd ac bb 20 be 77 68 b3 bd
       -0.074003264 -0.106941655 -0.15696591 -0.087601595
000360 22 38 55 bd ba d6 c3 bd 00 e1 ea bd cd 64 d2 bd
       -0.052055486 -0.0956244 -0.114686966 -0.102731325
000370 aa 22 6c bd 4b 76 08 bd 32 ec cb bd fd e2 19 be
       -0.057650246 -0.033315938 -0.0995716 -0.15027995
000380 81 ec 21 be df e5 18 be 6b be cb bd 89 bf a5 bd
       -0.15812875 -0.14931439 -0.09948429 -0.08093173
000390 e9 6a f0 bd f5 71 07 be 6b 7c f6 bd 76 a9 c7 bd
       -0.117391415 -0.13227065 -0.120354496 -0.09749119
0003a0 50 57 69 bd bf ef 4e bd 68 ee 09 be 2b 5a 0a be
       -0.056968033 -0.05052161 -0.13469851 -0.13510959
0003b0 ab 6d de bd c5 f9 47 bd 6a 83 77 bc ca f4 0d bd
       -0.10860761 -0.048822183 -0.015107015 -0.034657277
0003c0 42 84 0c be 33 e2 cb bd 66 51 4d bd 4d ee 28 3b
       -0.13722327 -0.099552535 -0.050126456 0.0025776804
0003d0 2f 00 44 3d 31 2d a5 3c fa 9f cf bd df 97 58 bd
       0.047851738 0.02016315 -0.10137935 -0.05287921
0003e0 3a 2a a7 bc ed 98 a7 3c 2d 1b 6c 3d 2f d9 2a 3d
       -0.020405877 0.020458663 0.057643104 0.04171103
0003f0 e5 89 72 3d a3 3b 17 3d 50 57 88 bd 80 95 44 bd
       0.059213538 0.03692211 -0.066572785 -0.047994137
