vae_model.pth (torch, 874328 bytes, 7 tensors)

conv1.weight f4 [16, 1, 5, 5]
000000 9b 1e 80 bd 45 25 bd bd 87 e2 8f bc 1a 0f f2 bc
       -0.062558375 -0.09235624 -0.017564071 -0.029548217
000010 14 92 35 bd c0 84 7c be d9 02 87 bd 9c 31 06 be
       -0.044328764 -0.24660015 -0.0659234 -0.13104862
000020 eb 46 31 bd 50 08 54 bd 60 d8 50 be 90 50 d4 3d
       -0.043280523 -0.05176574 -0.2039504 0.103669286
000030 a9 9e d5 3d e8 37 63 3e 2a 65 d4 3d a6 6f 7f bb
       0.10430653 0.22189295 0.10370858 -0.003897646
000040 3f 0c 38 3e f3 ff 87 3e c7 4d b7 3d a4 15 b9 bd
       0.17973422 0.2656246 0.08950382 -0.09037331
000050 ba 47 4f 3e b4 d1 2f 3e b1 cd 8b 3d b8 62 74 3b
       0.20242205 0.17169839 0.06826342 0.0037290286
000060 4f 3e 85 bd e2 e7 20 be 7b e7 a8 3d e6 8e 70 be
       -0.06506025 -0.15713456 0.082472764 -0.23492011
000070 f0 7d 2c bd 3d 49 09 be 8f 89 ed 3b ee af d4 bd
       -0.04211229 -0.13406844 0.0072490643 -0.103851184
000080 5a f5 27 be 4a 00 18 bd be 4c 4b 3e bc de 3e 3d
       -0.16402188 -0.03710965 0.19853494 0.046599135
000090 cc d2 08 be cc 95 81 bd ba 61 8e 3b 11 52 3f 3e
       -0.13361663 -0.063273996 0.004345146 0.1868365
0000a0 b1 ef f1 bd b4 7c 9d bd 2c dc 38 3e 4f 77 10 3e
       -0.11813296 -0.07689801 0.18052739 0.14108013
0000b0 00 b8 ab 3d 2a ee cf bb 44 5b e7 bd 00 f5 8a bb
       0.083847046 -0.00634553 -0.112967044 -0.004240632
0000c0 1a d2 0d 3e 6f c3 0b 3e 5e c8 5c 3d 74 bf 2a be
       0.13849679 0.13648771 0.053902023 -0.16674596
0000d0 5e ba 32 be 87 44 9f bd 53 1e bc 3c 19 ee bd bd
       -0.17453906 -0.077767424 0.022963678 -0.09273929
0000e0 7e fb 14 be 17 0f cb bd 7a 5c 32 be 22 ae 21 3d
       -0.14549062 -0.099149875 -0.1741809 0.039472707
0000f0 b4 31 1a be 71 e8 a2 3d fe 4c b3 bd fa 03 f6 3d
       -0.15058023 0.07954491 -0.087549195 0.12012477
000100 d8 a2 d7 3d 63 f2 ad bd 9b b3 8d bd b1 65 00 3e
       0.10529107 -0.08493497 -0.06919023 0.12538792
000110 85 f2 48 be 20 81 3f bd 41 bb 32 3e a1 f8 e5 bd
       -0.19623764 -0.046754003 0.17454244 -0.11229063
000120 b0 8a 9b bd 22 55 dc 3d a8 ca 05 bd 3e dc 1f be
       -0.07594812 0.10758425 -0.03266397 -0.1561136
000130 b0 13 8e bd 87 b4 00 be 79 81 1c bd f4 36 87 3c
       -0.06937349 -0.12568866 -0.038209412 0.016505696
000140 59 8f 0f be cf d7 42 3d 27 39 b5 3b be e1 6a bb
       -0.14019527 0.047569092 0.0055304947 -0.003584012
000150 f4 41 63 bc 19 50 06 bd fa 55 d1 3d 62 1d ae bd
       -0.013870705 -0.03279123 0.10221477 -0.08501698
000160 f3 29 98 bd 8d 45 b0 3d da 5b 49 3d c0 f7 45 3e
       -0.07429876 0.08607016 0.049159862 0.1933279
000170 8f d6 04 3e f4 04 3b bd 87 a2 75 bd fa 3d e6 bd
       0.12972473 -0.04565902 -0.05996945 -0.1124229
000180 f3 0c 12 bd e3 4a eb bd 24 b4 c5 bd 58 0c af bc
       -0.03565688 -0.11488893 -0.096535 -0.02136819
000190 1a ad 3e 3e 89 65 2c be 5a f5 73 3d 57 24 53 3e
       0.1862072 -0.16835608 0.059560157 0.20619331
0001a0 c7 05 2b bd c2 c8 99 bd b0 b7 36 3e 23 f1 0b 3e
       -0.041753557 -0.07508995 0.17843509 0.13666205
0001b0 53 5a 00 3d a3 34 27 be d0 a7 a6 3c 4c b8 89 bd
       0.03133614 -0.16328673 0.020343691 -0.06724605
0001c0 db 4c 13 be 70 87 5c bd 0b 66 32 be fb 6a 77 3e
       -0.14384787 -0.0538401 -0.17421739 0.24161904
0001d0 c8 7e 62 3d b0 5a ec bd 26 9d f4 bc d8 d7 00 3e
       0.05529669 -0.11540735 -0.02986009 0.12582338
0001e0 95 5e d3 3d eb 83 08 be a4 16 e5 3d 87 f4 97 3d
       0.103207745 -0.13331573 0.11185959 0.07419687
0001f0 43 37 4b 3e 34 97 35 3d f9 1a 66 be bf 32 53 bd
       0.198453 0.04433365 -0.22471227 -0.051562067
000200 c2 72 3c be bc 51 d7 bd a7 d2 84 3d f5 e2 f0 bd
       -0.18403152 -0.105136365 0.06485491 -0.117620386
000210 82 8d 41 bd 5b be b9 3d b0 ea 0c be f4 d0 d7 3d
       -0.047254093 0.090695105 -0.13761401 0.105379015
000220 b9 37 d0 bd d4 e3 38 3e 28 6d 74 3e 61 85 6a 3e
       -0.10166878 0.1805566 0.23869765 0.22902443
000230 56 4d 06 3e ce c1 ce bd 66 e1 0e 3e 71 f4 53 3e
       0.13115439 -0.10095559 0.1395317 0.20698716
000240 90 71 39 3e ff 30 7a bc f6 52 06 3e 79 09 0a 3e
       0.18109727 -0.015270471 0.13117585 0.13480176
000250 5b 2d 3b 3e 56 31 d3 3c bd c1 b7 3d 5c 36 81 bd
       0.1827902 0.025780361 0.089724995 -0.06309196
000260 1b 2e 28 be 7a 60 37 3d 27 cf 94 3e 45 5f 39 be
       -0.16423838 0.04476974 0.29064295 -0.18102749
000270 0c 7a d1 bd 12 86 4b be a7 e5 05 3e 58 08 2a 3e
       -0.10228357 -0.19875363 0.13075887 0.16604745
000280 68 59 f7 bd e3 75 95 3d 73 ef aa 3c ad 2a 2e 3e
       -0.120776 0.07297876 0.020866131 0.17008467
000290 e2 f8 44 3e f6 b2 98 bd 9c 8a f3 3c a6 23 47 be
       0.19235566 -0.07456009 0.02972918 -0.19447193
0002a0 24 56 f9 bd e5 da 6e 3e cb 61 2d 3c cc 58 2e be
       -0.12174633 0.23325689 0.010582398 -0.17026061
0002b0 10 ff 32 bd 66 ac 40 be c5 3a e4 3c 00 a5 0f be
       -0.043700278 -0.18815765 0.027860055 -0.14027786
0002c0 39 a0 36 3e 11 6d fa 3d 1e 73 64 3e ed 5b b8 3d
       0.17834558 0.12227834 0.22309539 0.090019085
0002d0 89 0a bc bd 47 10 1e 3e 9f 6c 2a bc 8b 70 a6 3d
       -0.09181697 0.15435897 -0.010401874 0.081269346
0002e0 c5 42 10 be 7c 2c fe bc e3 a1 bb 3c 4e c3 0c bd
       -0.1408797 -0.031027071 0.022904342 -0.034365945
0002f0 de ea 15 be 39 95 68 bc fc b3 16 3e b6 8d 99 3d
       -0.14640376 -0.014195734 0.14717096 0.07497732
000300 e7 9d d3 bd 73 29 0c be 31 a8 ec bd b7 ce 40 be
       -0.10332852 -0.13687687 -0.115555175 -0.18828855
000310 5f 2c 6c bd 07 bb 70 be 7a 05 28 be 0a 3e f3 3d
       -0.057659503 -0.23508845 -0.16408339 0.118770674
000320 5b a9 da bd ba a0 1b be 42 67 92 3d 46 4f d2 bd
       -0.10676833 -0.15198031 0.07148601 -0.102690265
000330 e7 12 0d 3d 31 13 89 be 25 0c df bd 06 3f 0a be
       0.034441855 -0.26772454 -0.10890988 -0.13500604
000340 6f c9 55 3e 52 83 2a 3e 65 eb f3 bc 5b 9b e5 bd
       0.20877622 0.16651657 -0.02977533 -0.11211272
000350 a5 73 e0 bd 17 bf 72 3e c7 af d7 3c d8 0b 62 be
       -0.109595574 0.23705707 0.026328934 -0.2207483
000360 9c 44 3a 3e b0 4f 25 3e a8 7b da 3d 41 3f c8 3d
       0.18190235 0.1614368 0.10668117 0.0977769
000370 c8 ca 3f 3e 36 0f 2f 3c ab 68 2a 3e 39 65 6a 3e
       0.18729699 0.010684779 0.1664149 0.22890176
000380 b1 45 be bd e9 ff 1a bd 53 55 f3 bc a9 b2 1b bc
       -0.09290636 -0.03784171 -0.029703772 -0.009503045
000390 48 d3 aa bc 5f 50 9e 3d 1b 99 74 3e 72 6a 1d 3e
       -0.0208527 0.07730173 0.2388653 0.15372637
0003a0 0c b2 1e 3e 8a 67 7a 3e 5a 36 75 bb 7b cf 83 3e
       0.15497607 0.2445356 -0.003741643 0.25744233
0003b0 de 4c 79 3e 24 5e 50 bc ca e0 d9 bd 38 5e 3a 3e
       0.24345729 -0.012717757 -0.10638578 0.18200004
0003c0 5b 0f c3 3d 9a 4b 10 be 23 f9 14 be be 83 cf bd
       0.09524413 -0.1409134 -0.14548163 -0.1013255
0003d0 a3 30 ed bc 1e b6 3e bd 69 2e ac bd f2 1f 4d be
       -0.028953856 -0.0465604 -0.084072895 -0.20031717
0003e0 5e 30 18 be a1 75 3e 3c c8 89 30 bd dd 67 a8 bd
       -0.148622 0.011624725 -0.04310015 -0.08222935
0003f0 a4 c4 45 3e ca bb 38 bd a1 0e bb 3d 2d cd 3f 3e
       0.19313294 -0.045100965 0.091336496 0.18730612

conv1.bias f4 [16]
000000 97 15 11 3d 44 31 92 3d 4d 0a d1 bd f5 14 ae bd
       0.03542098 0.07138303 -0.10207043 -0.08500091
000010 71 69 9c bd 5d 44 3b bc 94 3a 6f 3c 05 c9 a1 3e
       -0.07637299 -0.011429873 0.014601368 0.31598678
000020 1a b2 46 3d e8 3c ec bd 05 83 04 3e 0d 7f 04 3e
       0.048509695 -0.115350544 0.12940605 0.12939091
000030 f6 44 92 be e3 69 34 be 83 65 d1 3d 29 9d ab 3e
       -0.28568238 -0.17618518 0.1022444 0.3351834

linear2.weight f4 [50, 3136]
000000 f2 52 7e bc 33 5f 99 3b a5 a6 b8 3b e0 40 1e bc
       -0.015522705 0.004680538 0.0056351 -0.009659022
000010 59 a3 50 3c 5e 01 9e bc b5 15 8b 3c 47 51 b9 3b
       0.012734258 -0.019287761 0.016978124 0.005655441
000020 83 ff 93 bb 54 8c 89 bc 71 b2 b0 bb 0c d8 bb bb
       -0.0045165434 -0.016790546 -0.0053923656 -0.005732542
000030 91 ad dc bb ca 8b f8 3b 09 ec 5b bc c0 32 32 3c
       -0.006734558 0.0075850235 -0.013422974 0.010876358
000040 66 a1 23 3a 79 a1 f7 3b 09 65 4f 3c 75 86 b8 3c
       0.0006242007 0.007557091 0.012658366 0.022525052
000050 be 8a 84 3c ec d1 22 bc f2 38 9c bc 26 d8 d2 bb
       0.016179439 -0.009937745 -0.019070122 -0.0064344583
000060 c9 42 ba 3c 1d ab dd bb 13 e2 7e 3c 53 06 86 3c
       0.022736924 -0.006764783 0.01555683 0.016360437
000070 13 21 df ba f9 1a 86 3c 81 6f 8f bc ff bf b5 bb
       -0.0017023407 0.016370283 -0.017509224 -0.0055465694
000080 7e a2 21 3c 05 96 35 bc 2a 8d d1 3b 81 9d 90 bc
       0.009865401 -0.011083131 0.006395002 -0.017653229
000090 dc 0a 49 3c f1 86 72 3c c7 1e 69 3c f9 cc 9f 3b
       0.0122706555 0.01480268 0.014228529 0.0048767296
0000a0 d2 04 69 3b ac cf b3 3b 38 ca 21 bc eb c5 61 bc
       0.0035555852 0.005487403 -0.009874873 -0.0137800975
0000b0 f0 b7 3d 3c d3 d9 02 3d 1a ca 18 3c 43 a9 6f 3c
       0.011579499 0.031946015 0.0093255285 0.0146277575
0000c0 c0 bd 77 3c 85 63 35 3c 9d 30 ea ba 07 e2 6c 3c
       0.0151209235 0.011071091 -0.0017867271 0.014458186
0000d0 f5 1e 0a bc 09 f1 19 bc 0b 43 6f 3b 0a 3c bf bb
       -0.008430232 -0.009395846 0.0036508467 -0.0058360146
0000e0 b5 33 a3 3b a2 a4 49 bc 03 bd 4d bb 34 d0 01 bb
       0.004980529 -0.012307318 -0.0031393177 -0.0019807937
0000f0 9f 15 da bb bf ef 72 bc db 90 ca bb 6a c6 2e bd
       -0.0066554095 -0.014827668 -0.006181819 -0.04266969
000100 cb 09 02 bb 43 7e fa 3b 24 ce 82 bc c0 29 b5 bc
       -0.0019842263 0.007644446 -0.015967436 -0.022114635
000110 b4 91 7f 3b 39 5a 9d bb 4b 84 3e bc 4e e8 93 3c
       0.0038996758 -0.004802015 -0.011628221 0.018055107
000120 a7 3d 27 bb f4 cf 6f 3b c3 9f 8b 3b 7c 09 a9 bb
       -0.0025518925 0.0036592456 0.0042609884 -0.0051586013
000130 3b e1 9a bc ac 88 23 bc ca 52 fe 3b 71 25 a1 3c
       -0.018906226 -0.009981316 0.007761334 0.019671174
000140 06 4f b7 bc cf ad 8f bc 3e 0a b4 bb 46 4b d5 3b
       -0.022376548 -0.017538933 -0.005494385 0.0065092174
000150 5a a0 97 ba 3d b8 76 bc df a0 09 bc 32 1f 70 3b
       -0.0011568174 -0.015058574 -0.008400171 0.0036639688
000160 cd fb ac 3a 35 85 c4 3c 11 de fb 3a 25 88 48 ba
       0.0013197601 0.0239893 0.0019215961 -0.00076496816
000170 0e 07 ec 3c ae ce fd b7 01 d2 af 3b 1d b7 57 bc
       0.028811958 -3.0256193e-05 0.0053656106 -0.013166216
000180 59 88 98 3c 39 b8 7d 3b 76 11 8d bc e7 06 83 bc
       0.018619703 0.0038714542 -0.01722024 -0.015994502
000190 f9 f7 62 bb ee 20 3d bb 6c 31 85 ba b5 d0 50 bc
       -0.0034632667 -0.002885874 -0.0010161824 -0.012745072
0001a0 de e7 9b bc 6f 96 9f 3c 97 9a 7f 3b d1 47 9c bc
       -0.019031461 0.019480912 0.0039002055 -0.019077213
0001b0 b6 b5 86 bc 7e 59 23 3b a9 12 61 3c 35 67 80 3c
       -0.016444068 0.0024925168 0.013737359 0.015674213
0001c0 bb 2b 85 bb 46 6e 8b 3c 38 bc 2a 3c f4 f6 d1 3b
       -0.004064051 0.017020356 0.010420851 0.006407613
0001d0 ce 1d 02 3c cd 43 0f bc bc 35 85 bc 4e 55 e1 3c
       0.007941676 -0.008744192 -0.016260974 0.027506497
0001e0 7a 24 c4 bb c4 64 b8 bc 93 37 5e 3c e7 70 19 3c
       -0.0059857937 -0.022508986 0.013563055 0.009365297
0001f0 73 11 1a 3c cf 72 6b bb 8d c5 d7 ba ad 14 5a 3b
       0.009403574 -0.0035926586 -0.0016462073 0.0033276484
000200 47 01 50 3c 33 21 b5 3b cb b3 ef 3b c4 ed 86 3c
       0.012695617 0.0055276393 0.007315134 0.016470797
000210 a6 31 3d bc 5b 82 0e 3b 4d a7 2b bc 63 9d 3b bc
       -0.011547482 0.0021745178 -0.010476899 -0.011451098
000220 5e 42 b4 3c d2 f8 33 bc a4 7e 99 3b c3 85 b8 bb
       0.022004303 -0.010984616 0.004684286 -0.00563118
000230 71 59 72 3c 69 3e 71 3c 45 8e 19 3c 39 eb 5f bc
       0.014791832 0.014724352 0.009372299 -0.013666921
000240 21 8e 66 3c 8e 70 ac bb cd a2 36 bc aa 5e bd 3b
       0.014071972 -0.005262441 -0.011147213 0.005779107
000250 62 a7 5d bc 83 5c 58 3c db e8 95 3c 9c 26 20 3c
       -0.013528677 0.01320565 0.01829951 0.00977483
000260 51 4b da bb c9 03 d8 3b db 11 68 3c 92 60 3f 3c
       -0.0066618104 0.006592248 0.014164413 0.011680739
000270 50 90 5c 3b 21 17 dd 3b 5a fb 76 bb 1c b8 a2 bc
       0.0033655353 0.006747142 -0.0037686438 -0.01986318
000280 be b7 7e bc 13 b6 dd bc 54 77 9c bc cc 64 6c 3c
       -0.015546737 -0.027064359 -0.019099869 0.014428329
000290 35 46 de 3b 4b 0b 80 bc c0 99 93 3b 8f a5 41 bb
       0.0067832717 -0.015630385 0.0045044124 -0.0029548144
0002a0 b3 73 ee bb 70 ec 79 bc c8 a1 ff 3b 63 ab 89 3c
       -0.007276976 -0.015254125 0.0078012682 0.016805356
0002b0 e0 b2 78 bb 4f df 43 bc fd 51 1f 3c bd a4 ca 3b
       -0.0037948415 -0.011955096 0.009724137 0.006184189
0002c0 3d 0f 11 bc b2 f8 54 3c 2a 24 a6 bc 01 33 93 bc
       -0.008853731 0.012998747 -0.020280916 -0.017968656
0002d0 b6 44 61 3c 68 bc b9 3b 89 b3 42 bc 91 ef ae 3b
       0.013749292 0.0056682117 -0.011883625 0.005338617
0002e0 3c 5b 53 3c b0 85 6a 3a dc 48 3b bc fb 78 71 bc
       0.01290017 0.00089463126 -0.011430945 -0.014738317
0002f0 5e 9f 11 bb 8e 4d 69 bc 80 d6 82 3c 8f 94 91 bc
       -0.0022220234 -0.014239682 0.015971422 -0.017771034
000300 23 b5 2c bc 0f 7b 48 3c 51 bd 8d bc 31 ab ef bb
       -0.010541233 0.012236371 -0.017302187 -0.007314109
000310 6b e0 1f bc 97 8a 78 3b d9 3c af 3b 02 71 62 bb
       -0.009758095 0.0037924403 0.00534783 -0.0034552221
000320 eb fe 09 b8 0b 9a 66 3c 05 7d 84 bc f3 21 d7 3b
       -3.2900756e-05 0.014074813 -0.016172895 0.0065653264
000330 cf 88 98 bb b3 8d a4 bb e1 4f 66 3c 63 d3 0a bc
       -0.0046549807 -0.0050217747 0.014057131 -0.00847325
000340 c1 b8 b7 ba ef f0 33 bc cf 96 11 bc d1 60 a8 3b
       -0.0014016853 -0.010982736 -0.008886053 0.0051384945
000350 4a d9 fb bb e9 17 e4 bb c1 67 5a bb 87 7c 71 bc
       -0.007685815 -0.006960858 -0.0033326002 -0.014739162
000360 27 94 cf 3b 7e 45 00 3c 9e 32 39 3c 38 b2 44 bc
       0.0063348 0.007829068 0.011303572 -0.012005381
000370 32 ba 6f bc 73 37 38 3c de 4b 81 bb ff 01 80 3c
       -0.014631795 0.011243689 -0.0039458117 0.015625952
000380 ba fc e2 bb 0f f6 21 bc f3 e7 8c 3c 53 0d b8 3a
       -0.0069271 -0.009885325 0.017200446 0.0014042057
000390 db 5a 07 3c b3 ae 84 3b 24 fb 66 bb bb 35 9e 3b
       0.008261408 0.004049146 -0.0035244906 0.0048281825
0003a0 cc 31 0d 3c 47 5d 88 3c 79 8b 40 bb 41 6e 43 3b
       0.0086178295 0.01664604 -0.0029380007 0.0029820355
0003b0 5f 80 4b 3c 31 f1 85 3c f7 f3 c5 ba 5f 91 26 3c
       0.012420743 0.01635036 -0.0015102614 0.010166495
0003c0 03 15 5a 3b d7 2a 49 3c 9b 6e 29 bb 84 d4 20 3c
       0.0033276684 0.01227828 -0.002585328 0.009816293
0003d0 ec 94 aa bb 56 d2 87 3b 76 35 2a ba c7 95 9d bb
       -0.005205741 0.004144947 -0.00064929517 -0.0048091146
0003e0 88 01 3e bc b2 e8 46 3c 12 a0 c0 bb 09 ef 08 3c
       -0.011597045 0.01214044 -0.005878457 0.008357772
0003f0 84 c3 a5 3a ec 70 2a 3b e9 d7 cc 3b 46 c1 8c b9
       0.0012646769 0.0026007248 0.0062513244 -0.0002684688

linear2.bias f4 [50]
000000 24 e4 06 bd a6 bc 69 3c 6e 0c 03 bc cf 93 2f 3c
       -0.032932416 0.014266169 -0.007998569 0.010716393
000010 65 a1 44 bc 95 bd 46 3b 8b b2 b1 3b 23 a4 16 3c
       -0.01200137 0.0030325402 0.0054228953 0.009194407
000020 93 6f f8 3a 49 99 0e 3c 5d 59 b1 bb 15 b7 16 3d
       0.001895415 0.008703538 -0.0054122643 0.036795694
000030 89 d3 40 3c 79 23 57 3b d8 31 ee 3a 04 cd 86 bc
       0.011769184 0.003282754 0.0018172814 -0.016455181
000040 bb 2a 62 3c 6f 55 af 3c 38 8a de bb 39 3b 02 3b
       0.013804133 0.021403043 -0.0067913793 0.0019871725
000050 bd c5 9d bc 4c 34 35 3c a0 4b 81 bc d3 e3 ad 3c
       -0.019259328 0.011059832 -0.015783131 0.0212268
000060 50 e6 49 3c 00 54 57 bc 01 62 95 bc 6f b8 00 bd
       0.012322977 -0.013142586 -0.018235208 -0.03142589
000070 3b 01 eb bb c6 41 d0 bc 88 56 ae bb 69 e5 66 bc
       -0.0071717775 -0.025421988 -0.005320374 -0.014092782
000080 41 0a bc bc 02 7f e2 bc 0c 45 13 bc 57 31 c2 bc
       -0.022954108 -0.027648453 -0.00898863 -0.023705168
000090 45 77 90 bc a1 0d 8c bc 1b ad 66 bc 26 b6 d4 bc
       -0.017634997 -0.017096343 -0.0140793575 -0.025965761
0000a0 d4 f3 c0 bc c8 4d 9f bc 09 9e c2 bb c8 85 4c bc
       -0.023553766 -0.019446269 -0.0059392494 -0.012483068
0000b0 bc 8a 9f 3a a8 9e cf bc ff 7d 9b bc 6b d1 79 bc
       0.0012172083 -0.025344208 -0.018980978 -0.015247683
0000c0 d3 01 3e bd 99 40 94 bc
       -0.04638846 -0.018097209

linear5.weight f4 [2304, 25]
000000 e1 ef 87 3d cc ac 11 3e b0 33 b1 3d fc fa cd 3c
       0.0663755 0.14226073 0.08652437 0.025144093
000010 81 3c d7 3d ff 4b 7a 3d 16 00 04 be b4 c8 9d 3d
       0.10509587 0.06110763 -0.12890658 0.07704297
000020 33 f1 6c bd 64 85 95 3d 8e 9a ce bc 64 da fe bd
       -0.057847213 0.07300833 -0.025220182 -0.124439985
000030 e6 4e 98 3d cd 6e f3 bd 2a d3 11 3e e3 ab e5 bd
       0.07436924 -0.11886368 0.14240709 -0.112144254
000040 59 b9 fd 3c e2 31 ef 3d cd 28 b7 3d 32 eb ef bd
       0.03097217 0.11679436 0.08943329 -0.11714782
000050 ad 3b 18 be 2b 30 06 3e 50 b1 03 be e6 3c 28 bd
       -0.14866515 0.13104312 -0.12860608 -0.041073702
000060 9d 37 36 3d 6a 60 89 bd 0e 17 35 3e 6b 65 07 3e
       0.04448663 -0.06707843 0.17684576 0.13222282
000070 0b f5 d7 3d 4f f8 c3 3d 7b 54 2b 3e 1f 7d fe bc
       0.10544785 0.095688455 0.16731445 -0.031065522
000080 1f 09 f9 3b ec 39 29 bb 95 4c 3c 3d 18 98 4c 3b
       0.0075999643 -0.0025821878 0.04597147 0.0031218585
000090 a2 77 b3 bc b1 2b 56 bd 9e 09 53 3d 03 a9 18 be
       -0.021907631 -0.05228776 0.051522844 -0.14908223
0000a0 2a 77 5a 3d 52 20 b3 bd cd a7 38 bd 9c 7d 58 3d
       0.0533363 -0.08746399 -0.045081902 0.052854165
0000b0 a4 72 6b 3d a5 7d 87 3d 08 67 1b be 2c 51 6b bc
       0.057482377 0.06615762 -0.15176022 -0.014362615
0000c0 c8 05 25 ba 58 12 cd bd 94 3d 06 bd 77 53 08 3d
       -0.0006295112 -0.100132644 -0.03277357 0.033282723
0000d0 66 8f 0c 3b 65 07 fd 3d 61 3f a9 3d df c0 f4 bc
       0.0021447777 0.12354926 0.08264042 -0.029877124
0000e0 d0 fc 0e 3e 98 84 59 bc 19 c8 86 3c a5 e5 15 be
       0.13963628 -0.013276242 0.016452836 -0.14638384
0000f0 cd 09 2b be 8e 8a fe bd 0d 48 22 bd 64 33 a8 3c
       -0.16702957 -0.12428771 -0.039619494 0.020532317
000100 50 76 fd 3d 5d 03 f0 3d 36 3a 93 3d 4e 61 26 be
       0.12376082 0.117193915 0.07188837 -0.16248056
000110 a9 65 18 bc 28 43 2f 3d 39 71 27 be 78 3e a6 3c
       -0.009301581 0.042788655 -0.16351785 0.02029346
000120 01 21 5a bd b4 4c a6 bd 71 07 80 3c 28 03 59 3d
       -0.05325413 -0.08120099 0.015628548 0.052981526
000130 9b de 2b be 5c 51 09 be df bd 74 bd 88 1f 27 3e
       -0.16784136 -0.13409942 -0.059751388 0.16320622
000140 49 d5 19 be ff 9a 0a be 0f 3b b2 bd 62 17 c8 3d
       -0.15022768 -0.13535689 -0.08702671 0.09770085
000150 3c e5 a9 bc be b9 15 3e bf 8d 0d be ad e0 c7 3d
       -0.02073919 0.14621636 -0.13823603 0.097596504
000160 f6 b4 b2 bd 04 f8 14 bd 26 83 9e 3d 51 6b ef 3c
       -0.08725922 -0.03636934 0.07739858 0.029225977
000170 7c 77 98 3d 42 2e 02 be 92 1d ea 3d da 61 3b 3e
       0.07444665 -0.12712958 0.11431421 0.18299046
000180 89 44 1a 3e 71 f0 07 be 61 c4 c6 3d 58 57 60 3d
       0.15065207 -0.13275315 0.09705425 0.054770797
000190 22 93 1d 3d 16 fe 8d bd bf 28 fd 3c f8 8a e6 3c
       0.038470395 -0.06933229 0.030903218 0.028142437
0001a0 23 12 37 3e eb e0 99 3c 1d 50 01 3e 7f a4 0c 3e
       0.17878012 0.018784007 0.12628217 0.13734625
0001b0 51 e4 8b bd 30 65 92 bd 94 50 e2 bd 9a 7a 36 bd
       -0.06830657 -0.07148206 -0.11050525 -0.044550516
0001c0 b2 b9 39 3e b2 62 97 ba 6d d5 b4 bd 6f 18 47 bd
       0.18137243 -0.0011549799 -0.0882977 -0.048607286
0001d0 61 75 1f bc ad 1b 1d be 58 09 07 3e f4 3a 15 3e
       -0.009732575 -0.15342589 0.13187158 0.1457327
0001e0 19 c9 14 be 38 c6 78 bd 35 04 ad 3c 65 c9 33 3e
       -0.14529838 -0.06073591 0.02112017 0.17557295
0001f0 c3 f7 26 3d d0 99 25 bd 7f b3 1b bd 8c c4 37 be
       0.040763628 -0.04042989 -0.038012978 -0.1794607
000200 54 02 00 be da 2a 07 3e bd 66 55 be a3 7b 8f 3d
       -0.12500888 0.1319994 -0.20839973 0.07006004
000210 1f 87 12 bd 9e dd 62 bd 96 4f 8b 3d 1d ba e5 bd
       -0.035773393 -0.055387132 0.06802289 -0.11217139
000220 5e d4 d4 bc 42 4e 81 bd 38 f3 f0 3d cc ec 23 3e
       -0.02598017 -0.063137546 0.1176514 0.160083
000230 42 dd 0d be 18 e4 b0 3c 63 4b a6 3d 64 3c f4 bd
       -0.13853934 0.021593139 0.081198476 -0.11925581
000240 04 1a 03 bd a8 8b 50 bd 61 ac 2f 3d e9 1c 57 3c
       -0.032007232 -0.050914437 0.042889003 0.013129451
000250 2a 88 03 be 06 e8 88 bd 2a bb 8f 3c bb 20 ea bd
       -0.12844911 -0.0668488 0.017545301 -0.11432024
000260 b6 11 a6 bd b0 0a 08 3c fd a4 97 bd 72 1f 23 3c
       -0.08108847 0.008303329 -0.07404516 0.009956228
000270 66 b2 b9 3b 26 d9 25 be 84 4c b3 3c 0a 73 b4 bd
       0.0056670187 -0.16196117 0.021887071 -0.088110045
000280 e1 39 0a bd ee 41 55 be f3 6e 90 bd 2b 0e cf 3d
       -0.033746604 -0.20825931 -0.07052412 0.10110124
000290 08 1f 09 3e bf b6 d2 bc ba 21 26 3e 49 df f1 3d
       0.13390744 -0.025721906 0.16223803 0.118101664
0002a0 55 f6 13 be 7e 01 5b 3e 80 33 d9 3d d5 68 26 be
       -0.14449437 0.21387288 0.10605526 -0.16250928
0002b0 61 6b 5b 3d 2c 4b 49 3e d3 86 76 bd 4a 97 f4 3d
       0.0535692 0.19657582 -0.060187172 0.119429186
0002c0 37 a0 45 3d 22 c4 e6 3d 7b e6 f7 bc 15 c1 c4 bc
       0.048248496 0.11267878 -0.030261269 -0.02401785
0002d0 66 5c cd 3d 45 11 fb bd f0 ea 4f be 44 fc 4b 3e
       0.10027389 -0.12259153 -0.20304465 0.1992045
0002e0 73 c8 c4 bd e1 d3 74 be d2 32 d5 bd 72 90 2f 3d
       -0.09608545 -0.2390895 -0.10410084 0.042862363
0002f0 c7 53 2c 3e ac 0b f0 3d 4d a3 39 3e 4f a4 91 3e
       0.16828834 0.11720976 0.181287 0.2844567
000300 46 a6 0f bd b7 83 23 be 89 ec 36 39 51 68 b8 3d
       -0.03507068 -0.15968214 0.00017444989 0.09004272
000310 e2 61 3f 3e f7 6b a3 bd ff 45 20 be ed 87 0e 3e
       0.18689683 -0.07979577 -0.15651701 0.13919039
000320 cd e9 98 3d 52 e2 04 bd 05 4e a9 3d 0b 36 d8 bd
       0.07466469 -0.0324424 0.08266834 -0.10557183
000330 23 b4 76 bd 41 3f 05 bd 93 b1 f5 3d 14 b8 4f 3d
       -0.060230386 -0.032531027 0.1199676 0.05071266
000340 1e 25 2c be 1e 9f 6a 3d 2e c6 68 bd 7a 26 05 3e
       -0.16811034 0.057280652 -0.056829624 0.13002959
000350 c8 c3 26 3e 18 b2 1b 3e 65 ea 01 be f2 8c b0 3d
       0.16285622 0.15204656 -0.1268707 0.08620633
000360 35 46 42 3e 4f f3 05 3e d2 a9 94 bd 46 8d 04 bd
       0.18972094 0.13081096 -0.07258953 -0.03236129
000370 64 65 60 bd ff a5 2c 3e c1 54 dc ba 64 0b 29 3e
       -0.054784194 0.16860197 -0.0016809927 0.16508251
000380 1a 2e 5b bc ef 6b 0e 3d b3 01 37 be b6 0e 58 bc
       -0.013377691 0.034770902 -0.17871742 -0.013187101
000390 b7 6f 29 be 88 e4 18 3e 95 18 00 3e 20 02 05 bc
       -0.16546522 0.14930928 0.12509377 -0.008118182
0003a0 28 5f b3 3d a6 09 a7 3d f5 76 3c bb 4d 0d 16 be
       0.08758384 0.08156137 -0.0028757427 -0.14653511
0003b0 4a da 2b be 71 df 26 be 63 42 86 bc 59 e5 ed 3d
       -0.1678249 -0.16296174 -0.016389078 0.1161601
0003c0 6a 27 b7 3c d7 e9 11 3c dd 63 88 bd 34 51 47 be
       0.022357661 0.008905849 -0.066596724 -0.1946457
0003d0 11 8c d1 bd a8 9b 12 3e a5 d4 d0 bc d0 29 c6 3d
       -0.10231794 0.1431719 -0.025492022 0.09675944
0003e0 d3 74 45 3d 4d 3a d7 3d 71 93 09 be e0 22 09 3e
       0.048207115 0.10509167 -0.1343515 0.1339221
0003f0 1c db b3 3d 68 36 1a 3e a0 8f 28 be 12 ab 22 3e
       0.08782026 0.15059817 -0.16461039 0.1588557

linear5.bias f4 [2304]
000000 02 69 9b 3c c6 3d b1 bc 92 93 0d 3e c3 a5 5c bd
       0.01897097 -0.021635901 0.13825825 -0.05386902
000010 8d a5 9d bd 6d a3 08 3e 0a ee 6d 3e 6b 21 46 3e
       -0.07697592 0.13343592 0.23235336 0.19348685
000020 a1 1e 03 3e 6f 71 2c be b0 64 b8 bd 97 f3 28 3e
       0.12804653 -0.16840146 -0.090035796 0.16499172
000030 ec 84 77 bd 48 93 d4 3d c7 c3 1d be 72 10 f7 bd
       -0.0604295 0.10379654 -0.15406714 -0.120636836
000040 de e8 95 3d 50 c8 66 3e dc 9e ea 3c 55 f9 d9 3c
       0.073198065 0.2253735 0.028640203 0.026608149
000050 0b 39 8a bb a8 62 19 be 3f c3 dc bc 45 68 9a bd
       -0.004218226 -0.1497904 -0.02694857 -0.07539419
000060 9b 8f 14 3e 8e d8 fc bd be 76 f1 3c 7e a9 70 3d
       0.14507906 -0.12345992 0.029475566 0.05875539
000070 5c 52 13 3e 0f e5 24 3e 08 e1 43 3d 78 63 75 ba
       0.14386886 0.16103004 0.04782203 -0.00093608303
000080 a5 5f 46 bc 18 2c c2 bd 92 b6 0b 3d 59 a2 04 bd
       -0.012107764 -0.094810665 0.03410966 -0.03238139
000090 2a d2 08 bd cf b9 31 3e 0a 02 91 3b 90 01 d9 3d
       -0.033403553 0.17356037 0.004425292 0.10596001
0000a0 0c 9b 03 be d1 3f da bd 27 be 2c 3e 6a 9d a5 bd
       -0.12852114 -0.10656703 0.16869412 -0.08086665
0000b0 99 2c 52 3d 8e 71 20 be b0 24 fe bd 01 88 fe bb
       0.051312063 -0.15668318 -0.12409341 -0.007767678
0000c0 28 68 b9 3c 8f 1f 22 3e 93 bf 40 3e d5 97 15 3e
       0.022632673 0.15832351 0.1882308 0.146087
0000d0 08 0d 2f 3e 9a c5 1a bd 4f 1d 92 bd 2e ff 60 3d
       0.17094815 -0.037786104 -0.071344964 0.05493086
0000e0 08 46 93 3b 68 f7 3c be ee e1 17 be 23 e7 a3 3c
       0.0044944324 -0.18453753 -0.14832279 0.020007676
0000f0 5d ce d5 bc a2 92 33 bd c6 e5 f3 bd 83 e3 95 bc
       -0.026099378 -0.04384101 -0.1190906 -0.018296963
000100 0e 2f 35 bd 9f b8 18 be 53 dd a4 3d af 82 21 3e
       -0.044234328 -0.14914177 0.08050027 0.15772508
000110 57 b5 5f 3e 58 9a e0 bb 97 f1 91 bd e5 2e b4 3d
       0.2184652 -0.0068543367 -0.07126158 0.08798007
000120 33 67 1e be cc d0 f1 3d f6 39 0c 3e ed cb 64 3d
       -0.15469055 0.11807403 0.13693985 0.05585854
000130 9d 10 68 3e 5f 22 67 3e c5 9f dc 3c 32 d6 d5 bd
       0.22662587 0.22571705 0.026931653 -0.10441245
000140 98 62 b1 3d 7b 96 ed bd b9 a3 fb bd 10 49 19 3e
       0.086613834 -0.116009675 -0.12287087 0.14969277
000150 f3 4d 0d 3e 95 a4 a8 bd a0 7b 63 bd 39 32 2b 3d
       0.13799267 -0.082345165 -0.05553782 0.041795943
000160 9f 9a 1f be 7b 6a 2b be 3f 33 61 bd 69 40 45 be
       -0.15586327 -0.16739838 -0.054980513 -0.19262852
000170 99 cc 39 3d ae 00 5d 3d 08 60 31 3d 96 07 f5 3d
       0.045361135 0.053955726 0.043304473 0.119643375
000180 75 6e 3f 3e 0b 69 8e 3d 31 3b 78 3d 2c 50 2c be
       0.1869448 0.06953629 0.060603324 -0.16827458
000190 1e 1e 34 3e e3 0f 8f bd cc fa 0d be 64 ed bf bd
       0.17589614 -0.06985452 -0.13865203 -0.093714505
0001a0 09 b7 18 bd df 9a e2 bd 57 c2 8c 3c 23 ca 2f be
       -0.03728393 -0.110646956 0.017182512 -0.17166953
0001b0 04 00 e2 3d d3 5b 1f 3e d7 75 38 3d 90 56 cb 3d
       0.11035159 0.15562372 0.045034256 0.0992862
0001c0 92 be f4 3d 73 43 00 bd b9 7e 4d 3e 40 9f 08 3e
       0.11950411 -0.031314325 0.20067872 0.13341999
0001d0 fa 14 a0 3d c3 48 69 be e0 06 3f 3c 82 71 ab 3d
       0.07816501 -0.22781663 0.011659354 0.08371259
0001e0 3f 79 16 3d 28 c6 82 bd f6 65 e1 bd ec f3 77 be
       0.036736723 -0.063854516 -0.11005776 -0.24214143
0001f0 88 b0 36 3e f7 da 21 be 94 6d 55 3d 61 94 41 be
       0.17840779 -0.15806185 0.052106455 -0.18904258
000200 10 e1 46 be f2 5c 2e be b9 23 1c 3e b0 92 68 bd
       -0.19421792 -0.17027643 0.15248002 -0.056780517
000210 f0 0a 07 be 69 af c2 bc 90 3e 1d 3e 3f 29 9e bd
       -0.13187766 -0.023765283 0.15355897 -0.07722711
000220 02 7f 32 be a1 9a 6a bd 0b fe 5f be 1d 47 26 be
       -0.17431262 -0.057276372 -0.21874253 -0.16238065
000230 69 19 27 3e 20 9e f0 bd ff e7 42 be 64 2d ee 3d
       0.16318287 -0.1174891 -0.19033812 0.11629751
000240 e5 ca 8b 3d 27 e4 d3 3d b5 ad 1a 3e 6b e5 2d be
       0.068258084 0.10346251 0.15105326 -0.16982047
000250 a1 e9 3b 3e 7a 83 26 be cc d3 2a be a9 36 e9 3d
       0.18350841 -0.16261092 -0.16682357 0.11387379
000260 34 4f c0 3d a4 20 95 bd 53 31 52 3d 88 bd 98 bc
       0.09390107 -0.07281616 0.05131657 -0.018645063
000270 dd 32 67 3e 30 7b 9c bd d5 ee ce 3b 95 7f 4d 3e
       0.22577997 -0.07640684 0.006315092 0.200682
000280 2e 4b ba bd 37 07 6b bd c5 6b ee bc 5f 1b 8b bd
       -0.09096371 -0.057379927 -0.029104123 -0.0679233
000290 12 ce 85 3d 31 cc f7 bc 0c 71 00 bd f1 bc 2a bd
       0.065334454 -0.030248733 -0.03135781 -0.041684095
0002a0 c0 6a da bd ea 05 fc bd 10 73 a4 3d ee a7 db bd
       -0.10664892 -0.123058155 0.08029759 -0.107253894
0002b0 8a ee 26 3d 72 a7 0b be 28 90 40 bd aa 75 e0 3d
       0.040754832 -0.13638094 -0.047012478 0.10959943
0002c0 3f 5a b9 3d 9b 27 97 bd ea d1 51 3e d4 66 e4 3c
       0.09050416 -0.07380601 0.20490232 0.027881064
0002d0 07 ca 67 3e 10 2e 07 be 47 45 34 3e 94 19 48 3e
       0.22635661 -0.13201165 0.17604552 0.19541007
0002e0 96 02 f5 3d e9 59 29 be fc 4a 8a 3d c5 1f ba 3d
       0.11963384 -0.16538204 0.067525834 0.09088091
0002f0 c7 e0 3d bd 71 fc 49 be 4d c9 38 3e f3 d2 34 bd
       -0.046356943 -0.19725205 0.1804554 -0.04414649
000300 42 1f 2d 3e 2e f0 47 bd b5 a2 42 3e c5 ae 4b 3d
       0.16906455 -0.048813038 0.1900738 0.04972722
000310 f3 83 80 3c 5f d4 09 be fb 2a 8f 3d 15 91 76 bd
       0.015687918 -0.1345992 0.0699062 -0.060196955
000320 05 05 5a 3d c9 08 40 be fb f3 64 3e 0d 5d 09 3e
       0.053227443 -0.18753351 0.22358696 0.13414402
000330 ab 63 3f 3e a6 ae d4 3d 95 94 3a 3e fc aa ae 3d
       0.18690364 0.10384874 0.18220742 0.085287064
000340 64 45 f9 3d ac 42 91 3d 21 0c 02 be 26 7d c8 3d
       0.12171438 0.07092795 -0.1269994 0.09789495
000350 8f f3 91 bd 64 2b c0 3d aa d9 0e bd 90 77 18 3e
       -0.07126533 0.09383276 -0.03487555 0.1488936
000360 f0 d6 54 3e 5b 01 9f 3c ef 9f 8b bd a5 a7 dd 3d
       0.20785117 0.019409826 -0.06817614 0.10822991
000370 16 b7 21 be 33 5d 1a be 5b 11 1d be 8c ed 4c be
       -0.15792498 -0.15074615 -0.15338652 -0.20012492
000380 06 ca 50 be 48 ab 36 3e 58 3d 12 3e 78 1f 67 3e
       -0.20389566 0.17838776 0.14281213 0.22570598
000390 f8 99 e8 3c d5 fc b6 bd 2b 88 52 bd 62 da 41 be
       0.02839373 -0.08934943 -0.05139939 -0.18930963
0003a0 ea bc e2 bd 90 53 96 bd e5 56 26 be c7 91 0a be
       -0.11071189 -0.07340157 -0.16244085 -0.13532172
0003b0 d0 9a 1d be a1 8b 4a 39 39 14 b6 3c b2 65 5d 3e
       -0.15391088 0.00019316237 0.02222644 0.21620825
0003c0 cf 07 0b be 33 28 06 3d 6e 77 f4 bd 6d ad 26 3e
       -0.13577197 0.03275318 -0.11936842 0.16277094
0003d0 ff b7 65 bd 60 13 91 bd 30 e1 02 3d 17 b9 c0 bd
       -0.056083675 -0.070837736 0.031953037 -0.09410303
0003e0 bc 8d 0f bd da 24 3c be 44 b5 3a 3e 38 9f 3b 3e
       -0.035047278 -0.18373433 0.1823321 0.18322456
0003f0 41 d6 33 3e ab e7 0c 3e 1f 8a a9 bd 43 b3 21 bd
       0.175622 0.1376025 -0.08278298 -0.039477598

deconv.weight f4 [16, 1, 6, 6]
000000 9b d5 a9 bd 48 89 f5 bd dc 30 12 be 5e a2 30 be
       -0.08292695 -0.11989075 -0.14276451 -0.17249438
000010 72 55 15 be 09 7b 6d bd e9 4f 0f be dd b1 3e be
       -0.14583376 -0.057978664 -0.13995327 -0.18622537
000020 df 4c 3e be eb ca 3f be c9 7b ef bd 17 a7 01 bd
       -0.18584011 -0.18729751 -0.11693532 -0.03165349
000030 08 d5 0c be b4 d1 25 be db 47 0c be 4d cc d9 bd
       -0.1375314 -0.16193277 -0.13699286 -0.106346704
000040 8d 1a 7b bd 68 51 1b bc 00 3d c4 bd c2 88 87 bd
       -0.061304618 -0.009479858 -0.09581947 -0.06617881
000050 d7 b7 1c 3c 68 e9 95 3d 88 fb bf 3d 82 15 97 3d
       0.009565315 0.07319909 0.09374148 0.07377149
000060 26 a1 84 bc bc 18 9c 3d e6 02 44 3e 21 3a 78 3e
       -0.016190123 0.07621905 0.1914173 0.24240924
000070 2a fe 4a 3e ab 52 ec 3d 99 51 56 3d 29 f6 0f 3e
       0.19823518 0.11539205 0.05232391 0.14058746
000080 9c 81 6f 3e fd 38 7a 3e 71 07 2f 3e c9 b7 9f 3d
       0.23389286 0.24435802 0.17092682 0.07798726
000090 25 40 9f bd 7e 26 3d be ae bb 56 be ab 6e 47 be
       -0.077759065 -0.18471715 -0.20970032 -0.1947581
0000a0 73 4e fa bd 44 19 84 bd fd 3b 37 be d8 d6 98 be
       -0.12221994 -0.064501315 -0.17893977 -0.29851413
0000b0 5a b9 8b be a1 dd 60 be 83 9f 12 be 23 da e3 bd
       -0.2728985 -0.21959545 -0.14318661 -0.11125591
0000c0 73 99 61 be d2 68 9d be 34 c7 85 be b5 f4 36 be
       -0.22031192 -0.30744034 -0.26128542 -0.17866786
0000d0 61 fe 13 be d8 79 fd bd 10 89 49 be 7e 42 7e be
       -0.14452507 -0.123767555 -0.19681191 -0.24830052
0000e0 e0 8c 4d be 55 91 08 be f9 e2 f6 bd 6c a7 9f bd
       -0.20073271 -0.1333669 -0.1205501 -0.07795605
0000f0 a1 bd 0d be f3 e9 30 be fd b5 1b be 50 55 f8 bd
       -0.13841869 -0.17276745 -0.15206142 -0.12125647
000100 e8 c9 e0 bd 7f fd 17 bd f1 55 c2 bd a4 6f e4 bd
       -0.109760106 -0.037106987 -0.09489048 -0.11154106
000110 af e4 dd bd f4 07 b6 bd c6 a1 72 bd 89 31 89 3c
       -0.108346336 -0.08888236 -0.05923631 0.016747253
000120 8d ad 38 3d 3c 8c ea bb be 11 16 bd 10 e4 09 3d
       0.045087386 -0.0071578305 -0.036638014 0.033664763
000130 36 33 78 3d 27 7a a7 3d e5 27 0a bd 83 63 b6 bd
       0.060595714 0.081775956 -0.033729453 -0.08905699
000140 28 23 a4 bd b4 57 30 bc 05 22 c8 3b ed e2 3e 3d
       -0.08014518 -0.010763098 0.006107571 0.046603132
000150 32 a2 b9 bd 86 07 08 be 58 ee c8 bd cb cd 9d bd
       -0.090641394 -0.1328412 -0.098110855 -0.077052675
000160 01 ab 98 bd fd 37 61 bd a8 2e a1 bd 6d d7 e1 bd
       -0.074544914 -0.054985035 -0.07870227 -0.11027417
000170 31 6d a2 bd 43 fe cc bd 99 1e 0d be e5 de 0f be
       -0.07930983 -0.10009434 -0.13781203 -0.14049871
000180 06 c7 76 bc e8 00 1b bd 33 66 8e bc e4 03 da bc
       -0.015062099 -0.03784266 -0.017382717 -0.026613183
000190 89 c1 59 bd 7d 12 9d bd 3e 2a d0 3c 58 fb 7e 3c
       -0.053163085 -0.07669542 0.025410768 0.015562855
0001a0 07 10 5e 3d be b1 3b 3d 0e e6 01 3d 7c 1d b5 bc
       0.054214504 0.045823805 0.031713538 -0.022108786
0001b0 a2 1e c3 ba d0 aa 1c 3e aa 83 b4 3e 89 81 f6 3e
       -0.0014886449 0.15299535 0.35256702 0.48145702
0001c0 a9 b4 cc 3e 08 a5 1b 3e 69 98 25 3e f4 47 fe 3e
       0.39981583 0.15199673 0.16171421 0.4966427
0001d0 f8 2e 4c 3f ce 61 61 3f 43 1d 2d 3f cb 7d 99 3e
       0.7975917 0.88039863 0.67622775 0.29978785
0001e0 a5 71 98 3e 9b 9e 3a 3f ab 1d 83 3f 98 09 7f 3f
       0.29774204 0.7289826 1.0243429 0.99624014
0001f0 99 f6 28 3f e9 0d 74 3e f3 af 98 3e 20 3c 29 3f
       0.6600128 0.23833431 0.2982174 0.6610737
000200 2b 1f 57 3f b7 a1 2f 3f e0 92 aa 3e 9b b3 02 3c
       0.84031934 0.6860613 0.33315182 0.007977392
000210 4c 02 3e 3e 16 f5 d6 3e 24 ac e9 3e 6f 95 87 3e
       0.18555564 0.4198386 0.45639145 0.26481196
000220 1d dd 2c 3c f0 5b 00 be 45 0b e6 3c 4a 33 14 3e
       0.010550764 -0.12535071 0.028081546 0.1447269
000230 35 48 09 3e 86 b1 61 bc 14 93 09 be a5 24 d7 bd
       0.13406451 -0.013775235 -0.13435012 -0.10505036
000240 59 bf a6 bd ca 8a 09 be 92 ab 0c be b7 b5 25 bd
       -0.081419654 -0.1343185 -0.13737324 -0.0404565
000250 c0 97 e5 3d 74 35 b9 3d 80 51 32 be d5 39 18 be
       0.11210585 0.090433985 -0.17413902 -0.14865811
000260 86 af 89 3b e9 6a 5e 3e e5 a2 b4 3e 4e 46 52 3e
       0.004201832 0.2172047 0.3528053 0.20534632
000270 54 5f ce bd 2f 17 c6 3c 63 3f 9a 3e 67 6a 13 3f
       -0.10076776 0.024180977 0.30126485 0.5758423
000280 f4 e9 1a 3f 09 e0 a7 3e 30 01 c6 3b 72 ea 82 3e
       0.60513234 0.32788113 0.006042622 0.25569493
000290 4f 33 15 3f 8f b0 4d 3f 95 58 39 3f b2 b4 bb 3e
       0.58281416 0.8034753 0.7240079 0.36661297
0002a0 47 97 61 3d ef 9e a9 3e 90 8c 13 3f 31 ed 33 3f
       0.05507591 0.3312907 0.57636356 0.702838
0002b0 50 41 0e 3f 53 7b 5f 3e 58 65 fe 3c 7c d1 4c 3e
       0.5556841 0.21824388 0.031054184 0.20001787
0002c0 d1 4d a0 3e b5 67 b2 3e 34 c8 64 3e b4 ab 44 3d
       0.3130937 0.34844747 0.22341996 0.04801531
0002d0 7b b1 cc 3c 75 5c 8e 3d 29 7b d0 3d 50 d6 9f 3d
       0.024986973 0.069512285 0.10179741 0.07804549
0002e0 e8 c4 94 3d e6 8c 7c 3c d6 2f 76 3d 4c 71 0b 3e
       0.072641194 0.015414452 0.060104214 0.13617438
0002f0 62 1a 44 3e 6b 8e 2f 3e c0 5a f7 3d 9b 7a 9b 3c
       0.19150689 0.17144172 0.12077856 0.018979361
000300 90 eb a3 3d cd a7 41 3e 99 fa 7e 3e 98 85 5b 3e
       0.08003914 0.18911667 0.24900283 0.2143768
000310 b8 04 ec 3d f9 31 0e 3c e6 19 e3 3d 80 f3 80 3e
       0.115243375 0.008678907 0.11088924 0.25185776
000320 06 71 89 3e 3f ab 3e 3e c6 77 47 3d 19 34 39 bd
       0.26844043 0.18620013 0.04869821 -0.0452157
000330 64 b4 0f 3e db ec 8f 3e 38 54 86 3e f0 9c ee 3d
       0.14033657 0.28110394 0.2623613 0.11651027
000340 7d 69 b5 bc a4 76 e6 bd 35 4a b6 3d 64 fb 38 3e
       -0.022145027 -0.11253098 0.089008726 0.18064648
000350 f6 79 15 3e 47 69 34 3b 59 c3 bc bd 56 ff 03 be
       0.14597306 0.002752857 -0.09216947 -0.12890372
000360 b2 ce 8e 3d 46 7d 66 3d 05 e7 c1 3d 79 ce 65 3e
       0.06973018 0.056271814 0.094678916 0.22442044
000370 68 5c aa 3e 2e 69 84 3e e6 d5 2e bd f3 31 9c bd
       0.33273625 0.25861496 -0.04268446 -0.076267146
000380 25 d8 6f 3b a5 c4 86 3e bb 67 cb 3e 57 8f 9e 3e
       0.0036597338 0.26321903 0.39727578 0.30968735
000390 29 d1 33 be 3f 5a 7f be 0e e8 00 be ac 94 67 3e
       -0.17560257 -0.2493677 -0.12588522 0.22615308
0003a0 c7 f2 c3 3e 41 01 90 3e 7d f8 ae be 12 77 cf be
       0.38271162 0.28125957 -0.34173957 -0.4052053
0003b0 4a 07 5d be 38 a2 35 3e f1 8d b0 3e 75 e4 78 3e
       -0.21584812 0.17737663 0.34483293 0.243059
0003c0 02 10 b6 be c2 7f b8 be 34 32 11 be 65 61 4a 3e
       -0.35559088 -0.3603497 -0.14179307 0.19763716
0003d0 e4 41 9f 3e 13 1f 3a 3e 6c 25 66 be 54 e0 44 be
       0.31104958 0.18175916 -0.22475213 -0.192262
0003e0 d5 10 11 bd b8 2e 1a 3e 52 57 3c 3e df bd 90 3d
       -0.035416443 0.15056884 0.18392685 0.07067465
0003f0 15 b9 9e bd 4e 98 1f be 33 6f 4e be b0 3d 58 be
       -0.07750145 -0.15585443 -0.20159607 -0.21117282
